agents_and_games/data/TicTacToe_AgentMinimax_test/model.pth (torch, 42676 bytes, 6 tensors)

fc1.weight f4 [128, 9]
0.45866328 0.015874425 -0.33961448 -0.338476 0.08832752 0.5728658 -0.3309292 0.4717587
0.5481989 0.07039892 -0.22807984 -0.16585733 0.16492313 0.69342196 0.4119664 0.5052675
0.037347816 0.3742272 -0.14295937 -0.22556354 -0.19531132 1.9271728 -0.13336363 -0.1663571
-0.16572425 -0.22468771 -0.24315344 -0.18003657 1.5325956 -0.23213686 -0.43707845 -0.20679572
-0.2824607 -0.22134347 -0.28468028 -0.31990713 0.39203858 -0.053795535 -0.097016856 0.09106504
0.85443425 -0.2976363 0.09041133 -0.28978324 -0.71344817 -0.570254 -0.40523997 0.61033285
-0.2682776 0.28438947 0.25962132 -0.50008845 0.3324667 0.28205827 0.047729768 -0.06009849
-0.18572842 0.13028058 0.40343034 -0.10885652 0.41332883 0.31115055 0.1305057 -0.6298123
-0.034349244 0.40518054 0.24077258 0.5925858 0.34315956 -0.12829196 0.72544193 -0.2891254
1.0118773 -0.6696529 0.31624475 -0.13176574 -0.29819044 -0.11532132 0.004615678 -0.6153994
-0.1477194 -0.3198576 0.3335559 0.52341115 -0.36621177 -0.52889705 -0.004720634 0.2288615
0.04855102 -0.25332293 -0.45062947 -0.13782685 -0.27744204 0.7194067 -0.4290131 0.1876808
-0.17507471 0.3373856 -0.27204853 -0.93346405 -0.009484538 0.47751522 0.6071619 0.105484396
0.0073329573 -0.1021701 0.5328208 0.21185565 -0.5170466 -0.5689285 1.0099903 -0.026964603
0.031111317 -0.032064293 -0.18582793 0.042102564 0.19551492 0.8366538 0.13740236 -0.49919954
-0.5602405 0.3946037 -0.445353 -0.57432747 -0.21961284 -0.13028754 0.2763329 -0.7328879
0.3682183 0.09288634 0.308936 0.56765634 0.6507994 0.041488633 0.112486824 -0.1659302
0.19969164 0.08805591 -0.14395192 -0.50878227 -0.33633298 1.0444199 -0.042369492 -0.2235958
0.003260626 0.22106989 0.27609056 -1.3285551 0.35565472 -0.20666234 0.54829925 0.14402932
0.051251087 0.19043802 0.21688138 -1.4029824 0.31555867 0.18430711 0.19020306 0.19953255
0.2903499 0.20406534 -0.12439465 -0.6236414 -0.04129691 0.17678553 0.49562076 -0.2937155
-0.033417 0.28827202 -0.027865605 -0.031155078 -0.14208181 -0.33618075 0.5001756 -0.5426093
1.0642815 0.2465451 0.13038951 -0.05593783 0.6538265 -0.1344688 0.6503675 0.28719062
-0.36034757 -0.41244343 0.4333485 -0.4030477 -0.17236139 0.85593987 0.36367416 -0.3991263
0.2955552 -0.0990773 0.03143511 -0.42522845 0.027490849 -0.3804646 0.08151156 -0.13852969
-0.14409772 0.08586121 1.098625 0.15341412 0.448467 0.09986302 0.20559527 0.048489474
-0.7107813 -0.20621222 0.33941108 0.31849092 0.12506078 -0.44431162 -0.43457928 0.3851844
-1.0604883 -0.028596051 0.33816686 0.4542142 0.37104648 0.3813517 -0.073376186 0.0086542405
0.36771172 -0.20269848 -0.09062249 0.20910066 -0.18134604 0.7962641 0.09074385 -0.5683666
-0.09552541 -0.6728761 0.5301322 0.31854594 -0.3044043 -0.06881621 0.4875 -0.4330135
-1.0988616 0.28625816 -0.20089884 0.4281948 0.20478894 0.35472193 -0.1803386 -0.52267104
-0.1951524 0.36318955 -0.38965517 -0.11092424 -0.2783554 -0.39467302 -0.39646894 -0.30787212
00000000: ead5 ea3e 150b 823c f3e1 adbe ba4c adbe
00000010: 0fe5 b43d 55a7 123f 8d6f a9be 5b8a f13e
00000020: c356 0c3f 4f2d 903d c38d 69be 81d6 29be
00000030: 9ce1 283e 1a84 313f 43ed d23e 3659 013f
00000040: 06fa 183d b59a bf3e f163 12be 21fa 66be
00000050: b1ff 47be 99ad f63f 7a90 08be 8459 2abe
00000060: 9eb3 29be 8914 66be 37fd 78be 825b 38be
00000070: 182c c43f 49b5 6dbe bfc8 dfbe 42c2 53be
00000080: b09e 90be dda7 62be 9dc1 91be deca a3be
00000090: 48b9 c83e b558 5cbd c6b0 c6bd 4f80 ba3d
000000a0: 34bc 5a3f c963 98be 9329 b93d 785e 94be
000000b0: 8aa4 36bf 2bfc 11bf 9d7b cfbe c63e 1c3f
000000c0: ae5b 89be 7f9b 913e 16ed 843e cc05 00bf
000000d0: 1339 aa3e f169 903e 4a80 433d d629 76bd
000000e0: 972f 3ebe 4668 053e 6c8e ce3e 2bf0 debd
000000f0: d69f d33e 204f 9f3e 49a3 053e 613b 21bf
00000100: cbb1 0cbd d373 cf3e 168d 763e b4b3 173f
00000110: 9cb2 af3e f85e 03be 90b6 393f 3f08 94be
00000120: 3285 813f 5f6e 2bbf d5ea a13e 99ed 06be
00000130: 6bac 98be 962d ecbd 1d3f 973b d18a 1dbf
00000140: c143 17be 60c4 a3be d7c7 aa3e 46fe 053f
00000150: 1c80 bbbe cc65 07bf 8caf 9abb ab5a 6a3e
00000160: 6fdd 463d 8bb3 81be e8b8 e6be 7b22 0dbe
00000170: e20c 8ebe 0a2b 383f 9ba7 dbbe 652f 403e
00000180: c946 33be cebd ac3e f249 8bbe 80f7 6ebf
00000190: 0965 1bbc e07c f43e f66e 1b3f 3408 d83d
000001a0: 4e49 f03b 8f3e d1bd f266 083f b0f0 583e
000001b0: 2a5d 04bf 4ca5 11bf 5d47 813f dfe4 dcbc
000001c0: 29dd fe3c d955 03bd ad49 3ebe bd73 2c3d
000001d0: 1035 483e f22e 563f 34b3 0c3e 1597 ffbe
000001e0: ec6b 0fbf 7f09 ca3e 4f05 e4be 2007 13bf
000001f0: 30e2 60be 196a 05be 827b 8d3e 8b9e 3bbf
00000200: 1c87 bc3e 323b be3d dc2c 9e3e ed51 113f
00000210: ca9a 263f fcef 293d 7e5f e63d 9be9 29be
00000220: f77b 4c3e a856 b43d 2268 13be 8e3f 02bf
00000230: d633 acbe 8daf 853f a28b 2dbd 4cf6 64be
00000240: 3ab0 553b 2560 623e be5b 8d3e 180e aabf
00000250: 6018 b63e 4b9f 53be 575d 0c3f 6c7c 133e
00000260: a9ec 513d 2f02 433e 2716 5e3e ed94 b3bf
00000270: e890 a13e 01bb 3c3e 97c4 423e 4352 4c3e
00000280: bea8 943e 81f6 503e 9fc2 febd f6a6 1fbf
00000290: f326 29bd 4407 353e 01c2 fd3e e161 96be
000002a0: 44e0 08bd 6498 933e 6946 e4bc ef38 ffbc
000002b0: e57d 11be e21f acbe 820b 003f 71e8 0abf
000002c0: 603a 883f 5276 7c3e d484 053e 111f 65bd
000002d0: 2c61 273f 30b2 09be 7c7e 263f a60a 933e
000002e0: 7a7f b8be c92b d3be dbdf dd3e 455c cebe
000002f0: 817f 30be e01e 5b3f 8033 ba3e 485a ccbe
00000300: 0353 973e 0ae9 cabd 1ac2 003d 8bb7 d9be
00000310: 7d34 e13c 42cc c2be 88ef a63d bada 0dbe
00000320: 5a8e 13be 01d8 af3d be9f 8c3f 9718 1d3e
00000330: 779d e53e fc84 cc3d 9187 523e e69c 463d
00000340: c3f5 35bf 4c29 53be 4ac7 ad3e 3e11 a33e
00000350: ef0f 003e d07c e3be 2d81 debe e436 c53e
00000360: 15be 87bf 4442 eabc 3524 ad3e c38e e83e
00000370: cef9 bd3e 8840 c33e 4146 96bd 84ca 0d3c
00000380: b644 bc3e 3190 4fbe 4998 b9bd 7c1e 563e
00000390: c7b2 39be f7d7 4b3f e9d7 b93d 7980 11bf
000003a0: d3a2 c3bd 9c41 2cbf beb6 073f 7418 a33e
000003b0: e1da 9bbe 83ef 8cbd 9a99 f93e f2b3 ddbe
000003c0: 7fa7 8cbf 6e90 923e 6db8 4dbe 593c db3e
000003d0: 31b4 513e 1d9e b53e afaa 38be c5cd 05bf
000003e0: 08d6 47be fbf3 b93e e280 c7be 3f2c e3bd
000003f0: 9984 8ebe 9512 cabe fafd cabe 6aa1 9dbe

fc1.bias f4 [128]
-0.01145939 -0.050734326 0.11045863 0.25406045 -0.009699992 -0.12909326 0.30005327 0.22744508
0.13968062 0.30742818 -0.06920057 -0.057213265 0.23844075 0.20996493 0.37924254 0.12495764
0.10477843 -0.18476206 -0.11304983 -0.0005744175 0.15081948 0.12189773 -0.0236363 0.2192406
0.010712806 0.35756198 0.12777916 -0.09231419 0.091438495 0.23913765 0.16857098 0.035258383
0.49719754 0.15772356 -0.0811683 0.033217024 -0.011581388 0.15185997 -0.13195117 0.41682756
0.2729898 0.036108673 0.21049763 -0.12950207 0.03266276 0.21058406 0.52657527 0.24877259
0.07513403 0.019364135 0.045534674 0.29519477 -0.17194799 -0.22649558 0.12556931 0.37619805
0.10969212 0.22539522 0.13057375 -0.044323914 -0.04904705 -0.009083931 -0.14249495 0.25583982
-0.18781208 -0.00561277 -0.10801389 0.07652195 0.51598924 0.06332887 0.027405353 -0.035081852
0.2977136 0.13042748 -0.04475482 -0.20563875 -0.038947385 -0.21888512 0.027083257 0.19547898
0.3817011 0.39816153 0.32040837 0.1165146 0.24953318 0.13287115 -0.0071325907 0.17414616
-0.013533235 0.008420228 0.2406217 0.010251639 0.17254439 -0.09790058 0.36370426 0.05767557
0.02576274 -0.13566636 0.17988208 0.31324777 -0.08956724 0.08941863 0.48338535 0.38900682
0.097652614 0.019132886 -0.12086401 -0.07469807 0.18215673 -0.09540638 -0.16885006 0.102308534
-0.00059148454 0.02104985 0.07791761 0.54462063 0.103649415 0.2579809 0.05100158 -0.09507374
0.0070701963 0.16862105 0.48396307 0.13335945 0.19050933 0.067701355 0.3809243 -0.016563335
00000000: 2ac0 3bbc ccce 4fbd 2238 e23d 3614 823e
00000010: b7ec 1ebc 0631 04be 95a0 993e 5de7 683e
00000020: 7008 0f3e 3a67 9d3e 07b9 8dbd 7558 6abd
00000030: d029 743e 0c01 573e 142c c23e cbe9 ff3d
00000040: 1396 d63d 4432 3dbe ab86 e7bd 8294 16ba
00000050: 6c70 1a3e 84a5 f93d eaa0 c1bc 9c80 603e
00000060: c484 2f3c 5d12 b73e 8ad8 023e 390f bdbd
00000070: 1b44 bb3d 80e0 743e df9d 2c3e 186b 103d
00000080: ad90 fe3e 4982 213e 913b a6bd 930e 083d
00000090: ddbf 3dbc 2e81 1b3e 351e 07be 6c6a d53e
000000a0: 52c5 8b3e b0e6 133d b18c 573e 319c 04be
000000b0: 63c9 053d 59a3 573e a3cd 063f 3ebe 7e3e
000000c0: dfdf 993d 89a1 9e3c 9182 3a3d c523 973e
000000d0: 2213 30be 75ee 67be 3e95 003e 089d c03e
000000e0: 43a6 e03d 01ce 663e 20b5 053e fe8c 35bd
000000f0: 8fe5 48bd c5d4 14bc 32ea 11be 70fd 823e
00000100: cf51 40be 54eb b7bb 6336 ddbd 8ab7 9c3d
00000110: df17 043f 91b2 813d 3181 e03c fdb1 0fbd
00000120: eb6d 983e c88e 053e d550 37bd f792 52be
00000130: 4b87 1fbd 6c23 60be b5dd dd3c a42b 483e
00000140: 546e c33e d4db cb3e 910c a43e 359f ee3d
00000150: a085 7f3e 600f 083e 82b8 e9bb 5f53 323e
00000160: 80ba 5dbc fff4 093c 8965 763e 7ef6 273c
00000170: 7aaf 303e 1980 c8bd 7237 ba3e 383d 6c3d
00000180: 620c d33c 1fec 0abe 0233 383e 0362 a03e
00000190: 076f b7bd 1d21 b73d 497e f73e e72b c73e
000001a0: 18fe c73d 92bc 9c3c 8d87 f7bd 4dfb 98bd
000001b0: 4b87 3a3e 6c64 c3bd 08e7 2cbe 2387 d13d
000001c0: db0d 1bba bc70 ac3c 4593 9f3d 426c 0b3f
000001d0: 2546 d43d 1316 843e 08e7 503d 05b6 c2bd
000001e0: 1bad e73b ffaa 2c3e 02ca f73e 618f 083e
000001f0: e114 433e 02a7 8a3d 8308 c33e d5af 87bc

fc2.weight f4 [64, 128]
-0.11429478 0.29780453 -0.69104975 -0.26468617 0.21084164 0.17115395 0.032438353 0.016302118
0.0066101514 -0.020619629 -0.29572943 0.20723471 0.11424167 -0.1948361 0.036549967 0.30451784
-0.40702924 0.023957573 0.080595665 0.057083186 0.18466276 -0.025637403 0.43783703 -0.08728622
0.033587914 0.07787841 0.13708961 0.23011868 0.16973718 -0.029657219 0.11475009 -0.04904276
0.21634582 -0.019839274 -0.039600536 -0.6264924 -0.27068132 0.24318601 0.18174432 0.0034139259
0.014625815 0.2252245 0.2400888 0.2527704 -0.18037176 0.18491502 -0.039099455 0.18255925
-0.18259118 0.119009696 -0.58894306 0.11229812 0.45686707 -0.2439601 -0.026684267 0.08871783
0.19148366 0.16447173 0.030044582 -0.093929425 0.20544945 0.1458593 0.27258033 0.09935776
0.1436765 -0.041598663 0.07210705 0.34982482 -0.25618684 -0.07081773 -0.117919475 0.13344605
-0.15801877 0.08221122 -0.11796367 0.33559856 -0.17186332 0.11962455 0.048915554 -0.49958026
0.0041482034 0.1105934 -0.18359266 0.30766398 -0.040172353 -0.08767442 -0.11395125 0.044170406
0.23885861 -0.13714209 0.06126099 0.068203345 -0.1339937 0.0021429886 0.00048946694 -0.37114653
0.13683213 -0.1438753 -0.06621813 -0.128167 0.09043296 0.07799138 -0.0072374553 0.24087451
-0.053857114 -0.018399885 -0.004827925 -0.113901354 0.178533 0.54868984 0.011614537 0.070088916
-0.14169492 0.12144474 0.09361368 0.048943397 -0.34856486 0.15778957 -0.12691967 0.47711492
0.12604973 0.14613272 -0.016556855 0.0033850342 0.13198386 0.022920001 -0.10472398 0.27119228
-0.33003977 0.0725711 -0.09638644 -0.14052406 0.23096074 0.27022395 0.06527612 0.062337793
-0.01212979 -0.061158765 -0.1577374 0.32530886 0.23654321 -0.31726155 -0.039576013 -0.14414252
0.056704912 0.05573834 0.29562065 -0.07902288 -0.11809616 -0.24399146 0.09011077 -0.21874377
0.22079404 0.24388808 -0.0024431215 -0.39665547 0.12656672 -0.14627278 -0.39950198 0.031905174
0.23103513 0.09631239 0.1833032 0.08222587 0.13013454 0.06379924 0.1286162 -0.24177422
0.042418737 0.2601136 0.21910687 0.29370824 -0.23152806 -0.23208496 0.15291242 0.13535543
0.044342313 -0.44104207 -0.20012014 0.14401956 0.16845769 0.005252791 0.12728424 0.086039506
-0.049516127 0.1505173 -0.012391093 -0.26582894 0.09960762 -0.24157315 -0.28776616 0.090615295
-0.2107711 -0.16211529 0.038291473 0.09197253 0.16858032 0.046702612 -0.075598404 -0.1189987
0.14129432 -0.19968769 0.039848927 0.02660312 0.16083634 0.0133957835 -0.19775568 0.054661073
0.010803334 -0.08138854 0.13509955 -0.4986848 -0.3077368 -0.06619575 0.095519066 -0.20848183
0.21130714 0.16328539 -0.0741285 -0.1842106 -0.10341981 0.054948017 0.21135901 -0.04701639
0.45223537 -0.37244022 0.1852797 -0.018658347 0.13332985 0.18942386 0.08859042 -0.5170991
0.0018901001 -0.17906849 -0.36920878 0.018027557 -0.25892198 0.0727556 -0.138507 -0.4509362
0.007805299 -0.3501277 -0.26218948 0.060754146 -0.15379393 0.26775298 -0.111029424 -0.044935733
-0.15662876 0.2129621 0.15674287 -0.14139676 0.2134801 0.115616925 -0.13508803 0.07087568
00000000: 6213 eabd d679 983e a3e8 30bf f284 87be
00000010: dfe6 573e fb42 2f3e 14de 043d 058c 853c
00000020: f899 d83b 7fea a8bc d969 97be 5635 543e
00000030: 89f7 e93d 1d83 47be 6bb5 153d c3e9 9b3e
00000040: 2366 d0be ac42 c43c 570f a53d 0fd0 693d
00000050: 3c18 3d3e 8805 d2bc 2d2c e03e 1ec3 b2bd
00000060: 7b93 093d b77e 9f3d 3861 0c3e 3ba4 6b3e
00000070: 95cf 2d3e b2f3 f2bc 1802 eb3d 10e1 48bd
00000080: c289 5d3e f985 a2bc 2c34 22bd ce61 20bf
00000090: be96 8abe c105 793e 2f1b 3a3e 2cbc 5f3b
000000a0: 1da1 6f3c 40a1 663e d7d9 753e 1f6b 813e
000000b0: 60b3 38be 5d5a 3d3e c026 20bd d0f0 3a3e
000000c0: 2ff9 3abe 5bbb f33d f9c4 16bf 8ffc e53d
000000d0: 7bea e93e add0 79be f798 dabc b2b1 b53d
000000e0: 4b14 443e 476b 283e 0e20 f63c 125e c0bd
000000f0: 5761 523e 245c 153e a68f 8b3e 157c cb3d
00000100: ef1f 133e 5c63 2abd dcac 933d 3d1c b33e
00000110: ec2a 83be e308 91bd c47f f1bd 15a6 083e
00000120: accf 21be 5b5e a83d f096 f1bd 93d3 ab3e
00000130: f0fc 2fbe b7fd f43d ad5b 483d fcc8 ffbe
00000140: a7ed 873b cb7e e23d b7ff 3bbe 2286 9d3e
00000150: c48b 24bd a58e b3bd 465f e9bd 07ec 343d
00000160: 5a97 743e fa6e 0cbe ceec 7a3d 32ae 8b3d
00000170: a535 09be 6271 0c3b 924f 003a eb06 bebe
00000180: b91d 0c3e 0c54 13be 5f9d 87bd 363e 03be
00000190: ea34 b93d f2b9 9f3d 2d28 edbb cfa7 763e
000001a0: 4799 5cbd 5bbb 96bc 9233 9ebb 1d45 e9bd
000001b0: 5bd1 363e f076 0c3f e64a 3e3c c78a 8f3d
000001c0: 7918 11be 05b8 f83d 87b8 bf3d df78 483d
000001d0: 1877 b2be 9793 213e 3bf7 01be 6848 f43e
000001e0: 2e13 013e d1a3 153e 3ea2 87bc 73d7 5d3b
000001f0: c726 073e bac2 bb3c 8779 d6bd b7d9 8a3e
00000200: f9fa a8be 28a0 943d 4166 c5bd 8ae5 0fbe
00000210: f980 6c3e cb5a 8a3e 7daf 853d ea55 7f3d
00000220: 07bc 46bc 9d81 7abd ea85 21be e28e a63e
00000230: 6238 723e 1b70 a2be 751a 22bd 199a 13be
00000240: 6943 683d e34d 643d 975b 973e bfd6 a1bd
00000250: 66dc f1bd e6d8 79be ff8b b83d 5efe 5fbe
00000260: d517 623e ccbd 793e c71c 20bb 6d16 cbbe
00000270: b59a 013e 88c8 15be 868b ccbe 00af 023d
00000280: 7994 6c3e 6e3f c53d d6b3 3b3e 0966 a83d
00000290: fd41 053e 2da9 823d f7b3 033e a993 77be
000002a0: 45bf 2d3d 9c2d 853e 8d5d 603e ed60 963e
000002b0: b115 6dbe aea7 6dbe 1395 1c3e 9d9a 0a3e
000002c0: 49a0 353d 44d0 e1be 4bec 4cbe dd79 133e
000002d0: 2c80 2c3e 9b1f ac3b cd56 023e 7b35 b03d
000002e0: 6cd1 4abd 3521 1a3e 0304 4bbc bb1a 88be
000002f0: 14ff cb3d f45e 77be 1656 93be 8394 b93d
00000300: 61d4 57be 8d01 26be 85d7 1c3d 185c bc3d
00000310: 52a0 2c3e 3d4b 3f3d 56d3 9abd 97b5 f3bd
00000320: 75af 103e ee7a 4cbe a138 233d c9ee d93c
00000330: 48b2 243e fd79 5b3c 7780 4abe 4ae4 5f3d
00000340: 7800 313c 09af a6bd 8957 0a3e 9d53 ffbe
00000350: ae8f 9dbe a391 87bd 809f c33d 437c 55be
00000360: e660 583e 4934 273e afd0 97bd b4a1 3cbe
00000370: c4cd d3bd 2c11 613d 7f6e 583e 4294 40bd
00000380: 658b e73e 7cb0 bebe f6b9 3d3e 64d9 98bc
00000390: 9f87 083e 54f8 413e e56e b53d 9b60 04bf
000003a0: 3cbd f73a bb5d 37be ef08 bdbe 87ae 933c
000003b0: 6c91 84be e300 953d c7d4 0dbe 1ce1 e6be
000003c0: 98c3 ff3b f043 b3be b33d 86be 57d9 783d
000003d0: 287c 1dbe eb16 893e 6563 e3bd 880e 38bd
000003e0: 4a63 20be bd12 5a3e 3481 203e 50ca 10be
000003f0: 879a 5a3e 91c8 ec3d 8454 0abe 4527 913d

fc2.bias f4 [64]
0.06968127 -0.0437991 0.036662716 -0.08778496 -0.09374573 0.17238675 0.1054807 0.18351424
-0.056636695 0.1300542 -0.043088846 -0.10075406 0.029763648 0.05528425 0.0739925 0.035082534
-0.008589236 -0.089035176 0.12233382 0.11813377 -0.011088262 0.15764178 0.21805324 0.01848226
0.020207658 0.027023379 0.090014406 -0.068408296 0.1765216 0.15257123 0.05629923 0.08117902
0.020923825 0.14225908 -0.11962689 -0.08395434 0.16607188 0.05653277 -0.067519695 -0.14105394
-0.0029968736 -0.08957699 0.07435694 0.03158478 0.03291708 -0.0151863275 0.15214066 0.22237492
-0.109528385 0.003309135 0.005755907 0.023058169 0.03167161 0.09073584 0.016079227 0.027724132
0.08016508 0.052987657 0.027085355 0.11870366 0.09010836 -0.00060517516 -0.0006112732 0.0465591
00000000: 0eb5 8e3d af66 33bd a52b 163d 9ac8 b3bd
00000010: c3fd bfbd 2786 303e 4406 d83d 28eb 3b3e
00000020: e1fb 67bd ee2c 053e ee7d 30bd 2558 cebd
00000030: e5d2 f33c bd71 623d 6189 973d b4b2 0f3d
00000040: deb9 0cbc 1358 b6bd 278a fa3d 1ef0 f13d
00000050: 8bab 35bc d96c 213e 5949 5f3e 1c68 973c
00000060: 888a a53c 2260 dd3c 7959 b83d a619 8cbd
00000070: 14c2 343e a23b 1c3e 059a 663d 3041 a63d
00000080: 7168 ab3c 5dac 113e f1fe f4bd 41f0 abbd
00000090: bf0e 2a3e e88e 673d c447 8abd 7270 10be
000000a0: 3267 44bb 2474 b7bd 7448 983d 0b5f 013d
000000b0: 0fd4 063d 13d0 78bc c3ca 1b3e 40b6 633e
000000c0: 6b50 e0bd 13de 583b 0c9c bc3b 7ce4 bc3c
000000d0: 17ba 013d b6d3 b93d 95b8 833c b81d e33c
000000e0: 972d a43d 9609 593d 1be2 dd3c e81a f33d
000000f0: bb8a b83d 9ea4 1eba da3d 20ba c1b4 3e3d

fc3.weight f4 [9, 64]
-0.12274325 -0.5884239 0.33348945 -0.028856823 -1.0881892 0.006008625 0.1373246 -0.093801394
-1.0886127 -0.10662189 -0.05884982 -0.10512376 0.08044055 0.08874959 0.23003957 -0.0028360004
0.20749561 -0.023885345 0.099657156 0.18901101 0.15034914 -0.8466961 0.109940976 0.23581652
0.24464591 0.09885215 0.009509177 -0.15695699 0.10699902 -0.045061536 0.026965478 -0.15494676
-1.310251 0.0874852 0.2322983 0.13933055 -0.3474361 0.22202303 -0.03111353 -1.1738192
0.13063203 0.067261085 0.0012944222 0.2074492 0.24644679 0.3519804 -0.40636486 0.11918421
0.0067088483 0.17488751 -0.23913321 -1.1916188 0.2343741 -1.4615009 0.089089595 0.2322183
0.22488402 -0.20554139 0.07857019 0.1885209 0.34873492 0.045414016 0.025388053 -0.11297136
0.13969761 0.31895638 0.18606263 -0.12217976 0.18253352 -0.45988664 -0.40555495 -0.09113885
0.42715082 0.16783254 -0.02868371 -0.08374851 0.21160942 -1.7704371 0.24727441 -0.1309141
-0.0024212794 -0.036365055 0.10261056 0.12241526 -0.10905869 -0.08061226 -0.3902504 0.028375654
-0.08746294 0.51959413 -0.01771065 -0.109951265 0.07632587 -0.6220525 -0.3153509 -0.08202353
0.10839791 -0.26462546 0.4321094 0.2492783 -0.08056746 0.14597297 0.16120073 0.43895128
-0.080416255 -0.11648112 -0.061635405 0.035649125 -0.25870866 0.30382457 0.19705704 -0.5693092
0.30258697 0.24654646 0.36581025 0.17628744 0.5157879 0.36867332 -0.18725114 0.18537721
0.07240222 -0.48929775 -0.0821675 -0.06432992 -0.5706557 0.29898834 -0.48645875 -0.096006855
-0.1854476 0.10427005 -0.20484455 0.058049455 0.26470453 0.3163621 0.2748736 -0.98535573
0.13485102 -0.24631609 -0.10843367 0.083144195 -1.4153274 0.32229406 -0.22934344 0.28018132
0.07088204 0.0427977 -1.4346924 -0.1513522 0.107135214 0.1825929 -0.021625958 -0.0071810316
-0.13813837 -0.22346653 -0.8509709 -0.0034280987 0.33974072 -0.22496954 -0.13253203 0.3236754
-0.0050537894 0.24555238 0.36354145 -0.0880073 0.21629563 0.037793197 0.31111914 0.20145552
0.23583129 0.04871875 -0.43967408 0.2484359 0.22487165 0.102669924 -0.1503547 -0.17611097
0.15548138 0.2361407 0.17743118 0.15020059 -0.31881872 0.18016376 0.30075508 -0.6136657
-0.20475711 -0.08277386 -0.417358 -1.439906 -0.1318951 0.29999402 0.47611392 -0.08365689
0.6000838 0.18797936 -0.16004762 -0.050051402 0.058913745 -0.31839317 0.26473135 0.18607084
0.033079036 0.032970414 0.08571378 0.06711858 -0.06628682 0.3407196 -0.14075483 -0.12830575
0.026843624 -0.013952902 0.110427715 -0.15121458 0.25854906 -0.026153596 0.0072374633 -1.0120032
0.07488381 -0.020343862 0.036226556 0.14125687 0.119008966 -0.050192263 -0.6470684 -0.36101252
0.24312791 0.23925984 0.11481564 -0.06203251 -0.35622123 -0.65950006 -0.16789943 0.21429308
0.30287048 -0.037553903 -0.41398412 0.011239084 -0.4684064 -0.0888598 -0.22735257 0.12852208
-0.1527391 0.2671098 -0.8211274 0.20621395 -0.03483396 0.2271609 0.13874929 0.40205634
-0.047154803 -0.40637705 0.6054232 -0.0029419456 -0.13749173 -0.6459537 0.22569363 -0.029569479
00000000: d060 fbbd f3a2 16bf 21bf aa3e 2565 ecbc
00000010: c949 8bbf 00e4 c43b d29e 0c3e f21a c0bd
00000020: a957 8bbf 945c dabd 820c 71bd 204b d7bd
00000030: 04be a43d 58c2 b53d 7e8f 6b3e 31dc 39bb
00000040: bb79 543e 33ab c3bc 0d19 cc3d 1a8c 413e
00000050: 20f5 193e 13c1 58bf bc28 e13d e379 713e
00000060: 7584 7a3e ff72 ca3d 61cc 1b3c 55b9 20be
00000070: 4d22 db3d 7292 38bd b5e6 dc3c 5daa 1ebe
00000080: 4eb6 a7bf 712b b33d 9bdf 6d3e abac 0e3e
00000090: 25e3 b1be 015a 633e cde1 febc b53f 96bf
000000a0: 67c4 053e 2ec0 893d 9aa9 a93a 906d 543e
000000b0: 8c5c 7c3e c636 b43e 0e0f d0be da16 f43d
000000c0: e6d5 db3b b615 333e 56df 74be f786 98bf
000000d0: c4ff 6f3e 7612 bbbf 9b74 b63d a2ca 6d3e
000000e0: ff47 663e 7179 52be 68e9 a03d 9f0b 413e
000000f0: 628d b23e 0c04 3a3d 9bfa cf3c 875d e7bd
00000100: e40c 0f3e 404e a33e 3487 3e3e 6239 fabd
00000110: 11ea 3a3e 4376 ebbe e6a4 cfbe 01a7 babd
00000120: 83b3 da3e 4bdc 2b3e 1afa eabc 5784 abbd
00000130: 24b0 583e af9d e2bf 8135 7d3e 590e 06be
00000140: 54ae 1ebb 86f3 14bd 7c25 d23d dab4 fa3d
00000150: 2a5a dfbd 0a18 a5bd e7ce c7be 0f74 e83c
00000160: c51f b3bd 1f04 053f ed15 91bc 212e e1bd
00000170: bd50 9c3d d53e 1fbf ac75 a1be f4fb a7bd
00000180: b9ff dd3d fd7c 87be 713d dd3e d042 7f3e
00000190: 8d00 a5bd f079 153e ce11 253e 39be e03e
000001a0: 47b1 a4bd a78d eebd 6875 7cbd d104 123d
000001b0: 7675 84be e58e 9b3e 52c9 493e 3fbe 11bf
000001c0: aeec 9a3e ad76 7c3e 7b4b bb3e b284 343e
000001d0: ad0a 043f c0c2 bc3e c3be 3fbe 86d3 3d3e
000001e0: 9d47 943d 3c85 fabe 6f47 a8bd 68bf 83bd
000001f0: 7e16 12bf 0015 993e 1f11 f9be 3e9f c4bd
00000200: fae5 3dbe 898b d53d c5c2 51be 44c5 6d3d
00000210: 5a87 873e 37fa a13e 3cbc 8c3e 4640 7cbf
00000220: 6316 0a3e 493a 7cbe 7912 debd 8147 aa3d
00000230: 7329 b5bf ba03 a53e 02d9 6abe ed73 8f3e
00000240: 9a2a 913d a44c 2f3d 00a4 b7bf 12fc 1abe
00000250: b569 db3d a2f9 3a3e ec28 b1bc dc4e ebbb
00000260: 2574 0dbe 69d4 64be 3bd9 59bf f4a9 60bb
00000270: 7ff2 ad3e 6a5e 66be 7ab6 07be c8b8 a53e
00000280: 429a a5bb 1572 7b3e 1b22 ba3e 2c3d b4bd
00000290: 9a7c 5d3e 0acd 1a3d 024b 9f3e 5b4a 4e3e
000002a0: c27d 713e 508d 473d f61c e1be fb65 7e3e
000002b0: c144 663e 9c44 d23d 95f6 19be 6f56 34be
000002c0: 8336 1f3e dece 713e 85b0 353e 2fce 193e
000002d0: 353c a3be d97c 383e 92fc 993e 3219 1dbf
000002e0: d9ab 51be 5785 a9bd f3af d5be d74e b8bf
000002f0: 820f 07be d198 993e 34c5 f33e 4e54 abbd
00000300: 189f 193f a97d 403e 86e3 23be b302 4dbd
00000310: 8a4f 713d 6e04 a3be de8a 873e 5b89 3e3e
00000320: e27d 073d fc0b 073d b58a af3d 7775 893d
00000330: 62c1 87bd cd72 ae3e 0922 10be 9562 03be
00000340: 29e7 db3c b69a 64bc ed27 e23d ffd7 1abe
00000350: 8b60 843e 1140 d6bc 3e28 ed3b 5289 81bf
00000360: af5c 993d 2ca8 a6bc 4c62 143d a4a5 103e
00000370: f9ba f33d 6796 4dbd 46a6 25bf a2d6 b8be
00000380: 86f6 783e 8800 753e 7624 eb3d cd15 7ebd
00000390: a162 b6be ffd4 28bf d4ed 2bbe a56f 5b3e
000003a0: d711 9b3e 1fd2 19bd baf5 d3be 2324 383c
000003b0: f7d2 efbe 20fc b5bd 1dcf 68be 4b9b 033e
000003c0: a367 1cbe 9ec2 883e 6835 52bf c029 533e
000003d0: 0eae 0ebd de9c 683e 4b14 0e3e 54da cd3e
000003e0: 6525 41bd a710 d0be 04fd 1a3f a8cd 40bb
000003f0: a2ca 0cbe 395d 25bf 3b1c 673e b13b f2bc

fc3.bias f4 [9]
-0.1418299 -0.048685595 0.04979036 -0.15129629 0.10664557 0.017630998 0.093173854 0.22348373
0.1733456
00000000: db3b 11be 8c6a 47bd faf0 4b3d 6aed 1abe
00000010: fe68 da3d e26e 903c efd1 be3d ebd8 643e
00000020: 8281 313e
