agents_and_games/data/TicTacToe_AgentMinimax_test/model.pth (torch, 42676 bytes, 6 tensors)

fc1.weight f4 [128, 9]
00000000: 9772 93be 7b97 013f 6283 f13e cc1f b5be
00000010: edea 3abf d970 4abe 81e8 913e 3188 ac3e
00000020: d4be 57be 0e7c 6dbd 1c79 ecbd a38a 6cbe
00000030: 2c3c 383e efd0 7d3f 590a 6cbe 2a86 113e
00000040: 0fc3 c73c d00b b23c 6eb7 3cbf f7c7 78bd
00000050: 9cdb 09bd 05f3 63be 94b5 0c3f 4c4a f03e
00000060: 8d59 10be 8fe7 44be 2f44 013e 7d6e 82be
00000070: 053a 71be 7b9f dfbe 8688 b13e c156 513f
00000080: e735 1bbf 465c 433e 647d f6bd 09be ffbd
00000090: 44ea 72be 6d03 0abe 007d b6be 7f1b 723f
000000a0: d0d4 ddbd dbbe 8c3d 7fee 1d3c acc2 733e
000000b0: 9c46 9c3e a76e 303d 4b1b 6f3f 0bb0 2f3d
000000c0: 065b 143d 221b 8abe 0a67 38bd d65f c03b
000000d0: 600a 8abc 81db fabe d9da 8cbe e010 423f
000000e0: c3d6 523e 3b4b b2be f2f3 20bd 1dc1 a83e
000000f0: 1b86 49be 96e0 e8bd 4f1e 2dbf ec28 bfbc
00000100: ce2f 8a3e 9c34 cfbe ce95 94be d2e2 923f
00000110: 9189 82be 4ead 8b3e 260b 02bd 55fc d53d
00000120: 03cd a1bf 44f7 453e 422f 4f3e 8116 573e
00000130: a662 ab3d bdff 823e c00a 573e 3d53 8f3e
00000140: d05b 403e 8a7e 743e db75 1abd 69f3 a83e
00000150: dfa4 263d a081 88bf 0fad bb3d dd2f 003e
00000160: 915f 853e 16c6 633e c348 083e 3bd8 5d3d
00000170: 8222 18be 59ef 453e f395 8ebf 302f 6c3d
00000180: 8892 073f 8ec7 493e 6004 5f3e 3237 5dbe
00000190: 6dc8 e13e 3cec 0fbf e3c3 bdbe 1972 023f
000001a0: f026 6dbd 1c6f cdbe dcfd 963e 83c2 2e3f
000001b0: 0574 0bbf 6750 433d bc0a 7cbd 8d82 d0be
000001c0: 9b2d 803e fbc5 bfbe 0dea 28be b8d3 7f3e
000001d0: df38 69bd 5e0f 6a3d b5ea 463e 52d5 39bf
000001e0: 8c02 07be 2a5c 24bf f0b4 823d 2ba7 1b3f
000001f0: 2ebb 733e dd74 183d 6cdc ff3e c3f4 96be
00000200: 083c 00bf 8563 debe 8fa5 f1bd 2f38 73bd
00000210: cbcf 0c3e 3769 df3e e239 92bd 13bb 913d
00000220: be9c 8c3e 4de9 d93e 05bc 823d 2957 933e
00000230: b82a dc3e f1bc 9b3d b3d9 99bf 4529 893e
00000240: fc51 fcbe 2d69 aabe 3393 87be 1d56 8c3e
00000250: b6ab c83e 1c90 813d 2a78 4a3f ce45 90be
00000260: 55e8 a93e de8f 10be 0577 363e 306a 143c
00000270: 71c8 c3bf e47a 9f3e 8ba9 a7bd 24b3 dd3e
00000280: 9195 b33e cbc3 3a3d 6d9b 063e 9842 393f
00000290: 1c53 9cbe 6578 a4be 1ff2 9cbe 4fde 563e
000002a0: feb1 aabe bd20 4f3e 7886 e53e 2c08 a5bf
000002b0: 4465 013e a57b cb3d cd10 013e ec62 d23d
000002c0: 8875 2c3e 3110 b03d b550 393e 477b 613d
000002d0: a754 d93e fbbc b4be 7729 b63e 83c4 3bbf
000002e0: fd1b 2c3e 67ab 903e b5ed 0e3e b688 9a3e
000002f0: 3c0f c53e 9161 f3be a1b2 09bf 6ecb 903e
00000300: 1c6e 1a3f 5abf 393c a476 bc3d 4432 e1be
00000310: 834e b7be bfab 513e 9ea9 053f ab28 ae3e
00000320: b760 943e 055d 0abf 824d b0be 2442 1a3e
00000330: bba4 02bf fe24 e93d a3af 2b3e 724f 323f
00000340: 97d7 1b3d 86c5 98be cec3 a03e da55 12bf
00000350: 3aba 94bd 1150 37bc 96bf 9fbe 4d26 143f
00000360: 15c2 fb3e e268 11bf e9ba 1f3f d43a 923e
00000370: 65ef 3c3d fdf6 083f 6e39 09bf 96a8 0fbf
00000380: b856 67be fbb3 643d ece7 683e 7e53 6dbd
00000390: 984f 923e 7278 1b3f 1fe8 eb3d d8d7 83bf
000003a0: 96fd 3d3d 079a 7b3e c21a 843e 0f2c 8f3e
000003b0: 19cd 983d 4385 08bf 3e90 08bf 000f d1be
000003c0: 0fe8 d4be 10bc aa3e b9ad db3e 7e87 74be
000003d0: 38e0 95be 0b62 6e3e eac1 0b3f 0d8a 37be
000003e0: fb5a 253e 484d 10bf a04b d13e 2e22 9dbe
000003f0: 7626 d9bd 4bf0 513e d316 343f 7af2 b1be
-0.28798363 0.50621766 0.4717055 -0.35375822 -0.7301472 -0.1976961 0.284977 0.33697656
-0.21068889 -0.057979636 -0.11546537 -0.2309976 0.17991704 0.9914693 -0.23050822 0.14211336
0.024385003 0.021734148 -0.7371739 -0.060737576 -0.0336567 -0.22260673 0.54964566 0.46931684
-0.14096661 -0.19228958 0.12623666 -0.2547492 -0.23557289 -0.4367636 0.34674472 0.81773
-0.60629123 0.19078168 -0.12035635 -0.12487418 -0.23722178 -0.1347787 -0.35642242 0.94573206
-0.108316064 0.0687234 0.009639381 0.2380473 0.3052262 0.043074276 0.9340102 0.042892497
0.03621962 -0.26973826 -0.04502014 0.0058707995 -0.01685065 -0.48995593 -0.27510718 0.75807
0.20589738 -0.3482302 -0.039295144 0.32959834 -0.19680063 -0.11370961 -0.6762437 -0.023334943
0.26989597 -0.40469825 -0.29020542 1.147547 -0.2549558 0.27280658 -0.031748913 0.10448519
-1.264069 0.19332606 0.20232871 0.21004678 0.08368425 0.25585738 0.21000195 0.27993193
0.18785024 0.23876396 -0.037710052 0.32998207 0.040684577 -1.0664558 0.09163868 0.12518258
0.26049474 0.22243533 0.13309006 0.05416129 -0.14856914 0.19329585 -1.1139511 0.05766219
0.52957964 0.1970503 0.21779013 -0.21603087 0.44098225 -0.5621984 -0.37063512 0.5095535
-0.05789846 -0.40123832 0.29490554 0.6826555 -0.54473907 0.0476841 -0.061533675 -0.40724602
0.25034794 -0.37455735 -0.16495533 0.24983108 -0.056939002 0.05714356 0.19425471 -0.72591126
-0.13184565 -0.6420313 0.06382167 0.60801953 0.23801872 0.037220825 0.49972856 -0.29483613
-0.500916 -0.43435302 -0.11799156 -0.059379753 0.13751142 0.4363496 -0.071399465 0.0711576
0.27463335 0.42560807 0.06383518 0.28777435 0.43001342 0.07604397 -1.2019562 0.267893
-0.492813 -0.33283368 -0.26479492 0.2740945 0.39193505 0.06326315 0.79089606 -0.28178257
0.33185068 -0.14117381 0.1781884 0.00905852 -1.5295545 0.31148446 -0.08186635 0.43300736
0.35075048 0.04559688 0.13145228 0.7236724 -0.30532157 -0.32123104 -0.30653474 0.20983241
-0.33338922 0.20227332 0.44829154 -1.2893119 0.12636286 0.09935693 0.12604065 0.10272774
0.1684171 0.08596838 0.18097194 0.055049207 0.42447397 -0.3530043 0.3557851 -0.7334673
0.16807552 0.2825577 0.13957866 0.30182427 0.38488185 -0.47535375 -0.5378819 0.28280205
0.60324264 0.011337126 0.092023164 -0.43983662 -0.35802087 0.20475672 0.5221194 0.34015402
0.28980038 -0.54048187 -0.34434134 0.15064293 -0.5103261 0.11384009 0.16766219 0.69652474
0.0380474 -0.29838198 0.31399387 -0.5716225 -0.072620824 -0.011188523 -0.31200856 0.5787094
0.4917151 -0.56800663 0.6239458 0.28560507 0.046126742 0.53501874 -0.53603256 -0.56116617
-0.22591674 0.055835705 0.22744721 -0.057940952 0.2857635 0.6073066 0.11518883 -1.0300245
0.046384417 0.24570476 0.25801665 0.27963302 0.07460994 -0.5332834 -0.53345096 -0.40831757
-0.41583297 0.33346605 0.42905977 -0.23879811 -0.29272628 0.23279588 0.54592764 -0.17923756
0.16147988 -0.5636792 0.4087801 -0.3069014 -0.10603039 0.2050182 0.70347327 -0.34755307

fc1.bias f4 [128]
00000000: 458c 703d bb01 103d a51c c93d 66a8 093e
00000010: 2528 b2bd e086 d33e 6a28 503e d0b2 c13c
00000020: 6daf 07be 4b69 f0bd e544 e9bd 973a b43e
00000030: 87f6 313e d69e 70bd bd2f 67bd a034 05be
00000040: e9af 47bd 576b a1bd 49ec 823e dc4b 9abd
00000050: df77 6e3e bd61 713e 150e 1c3e 4ee6 ccbd
00000060: 5d32 463e 2a1e a1bc 76c6 3abe a185 a03e
00000070: 1a10 303c e5f4 013e e52e 383e 8d19 843d
00000080: 5048 9c3e 8c01 81bc 2db8 d8bd 9137 1f3d
00000090: 0bd0 3e3d 353e 0e3d d274 283e b72f 943e
000000a0: dbe6 b4bc 51ca cf3e 8532 213e 0f16 d03c
000000b0: 7c25 a43e 9920 9f3c 458d f7bc 525f c33e
000000c0: bcac 623e 2abf 553e 495f 26bd 667b a63d
000000d0: 0be1 bb3e dbc9 7abd 6264 7f3e 0f1f b9bc
000000e0: 6d02 073e cf11 963e 4fc5 253f eb8f da3d
000000f0: 053e b63e 1b0f 0c3e 77c5 b3bd 23ca b93e
00000100: 57cf 5c3e 6e44 92bd 36a7 0a3e bcfe 173d
00000110: 122d ee3c a6da 493e e0c2 c1bd f9e1 adbb
00000120: e64a b13e a7c1 65bd 80d0 cabd c5df ecbc
00000130: 436c 033f c562 d23e 52c1 9abd 7429 06be
00000140: 43b9 a7bd 9f5a 6ebd 8472 a63e 1577 0f3f
00000150: ae12 363e fde2 d4bd ec8a 4b3e 6a40 09be
00000160: 01f6 96bd c5d4 7bbe 6119 11be 3a31 d43e
00000170: 7c9d 55bd 4cde c0bc 8115 173e 13b9 393e
00000180: 38bb 0e3e b56f 173e 99f8 90bc f7d7 9bbd
00000190: 3a73 e4ba 407f 15be 9694 733e 9300 4b3e
000001a0: eeb8 623c e79d 93bd cfab 173e ef8b 053c
000001b0: 49c4 b43c e918 a1bd 27e4 a63e fde2 043e
000001c0: d1df db3d baf2 44be 450c fc3e cafe 203d
000001d0: 40fd 6fbc 5312 2f3e 6f35 773d e050 93bd
000001e0: 19a9 383e 8778 dd3e 0926 f9bc bb8f 8c3e
000001f0: 324a 0bbe 5291 a33d 92d9 153e 91bc 8a3e
0.05872752 0.0351579 0.09819917 0.13443145 -0.08699063 0.4131384 0.20327917 0.023644835
-0.13250513 -0.11738833 -0.11390094 0.3520095 0.17379199 -0.058745228 -0.05644201 -0.13008356
-0.048751745 -0.078818016 0.25570896 -0.07534 0.23287915 0.2357244 0.15239747 -0.10004865
0.1935515 -0.019667704 -0.1823977 0.3135195 0.010746026 0.12691076 0.17986639 0.06450186
0.3052392 -0.015747808 -0.10582004 0.03887135 0.046585124 0.034727294 0.16450813 0.28942654
-0.022082737 0.40584043 0.15741928 0.025401143 0.32059848 0.019424723 -0.03021873 0.3815866
0.22136205 0.20873705 -0.040618215 0.08129005 0.36695132 -0.06122766 0.24940637 -0.022597818
0.13184519 0.29310462 0.64754194 0.106719814 0.35594192 0.13677637 -0.08777898 0.3628703
0.21563469 -0.07141958 0.13540348 0.037108168 0.029074226 0.19712314 -0.094609976 -0.005306479
0.34627455 -0.056092884 -0.099030495 -0.028915295 0.5133707 0.4109098 -0.07556404 -0.1310175
-0.08189633 -0.05819189 0.32509243 0.5604108 0.17780563 -0.10394857 0.19877213 -0.13403478
-0.0737114 -0.24592884 -0.14169838 0.41443807 -0.052152142 -0.0235435 0.14754297 0.18137006
0.13938606 0.14788707 -0.017696666 -0.076095514 -0.001742936 -0.14599323 0.2378715 0.19824438
0.013838036 -0.07207852 0.14811634 0.008151039 0.022066252 -0.07866079 0.3259594 0.12977214
0.10736049 -0.19233218 0.4922811 0.039305486 -0.014647782 0.17096834 0.060353693 -0.0719316
0.18033256 0.43256018 -0.030413644 0.27453408 -0.13602522 0.07986702 0.14633778 0.2709699

fc2.weight f4 [64, 128]
00000000: c70c 1f3d e651 babd f4a5 a3bd 77c4 8d3b
00000010: e84c 6cbc 8eb7 1fbd 8c6e 90bd 8373 a5bd
00000020: a4c0 b0bd 0188 27bd d446 acbc bc83 1bbd
00000030: 42e5 a63d d8dc e6bc 1f6e 50bd 6aaa 24bd
00000040: ecdb d53c a481 91bd de69 773d 2e85 7d3d
00000050: ea86 69bc c0c9 bdbb b01d ecbb 47d6 7abd
00000060: e215 0abd fadc 6e3d 8030 f63a dd3b 44bd
00000070: 6f2b c5b9 b142 65bc f4c4 f63b 80c1 01bc
00000080: 0214 6cbd a6eb 313d 4671 4b3d 0d1a be3c
00000090: 9750 83bd 08f6 76bd e2d7 8ebc 61c7 acbd
000000a0: 09a7 8abd c459 823c e349 abbd c074 2bbb
000000b0: db27 863d 2fde b0bd 8122 96bd fdc2 54bd
000000c0: 2790 65bd 0ec6 883d 8097 7cbc cbf0 053d
000000d0: 4c43 fc3c a0ce fc3c 8cbd aabd 4e09 2c3d
000000e0: b139 2f3d 5906 453d 0e77 5b3d 1350 753d
000000f0: 63ab 933d 44af 69bd 6574 96bd 11bb 86bd
00000100: dd55 a7bd 7e52 a8bd b400 8fbd eaab 0c3c
00000110: 606f 3f3c 8c56 51bd b80e 6ebc 9c28 a83c
00000120: 1ce7 15bc a875 a7bd 26b6 413d 3a2f a23d
00000130: af82 d8bc 8461 86bc e808 533c 0484 a3bc
00000140: 7a3e 813b 385c f23c f119 a23d 8aa5 3f3d
00000150: 18a0 823c de48 76bd 5024 fb3c 9bfc 1dbd
00000160: 1249 27bd 60ca 3c3b 623a 91bd 593a 8cbc
00000170: 6af1 0abd d0a7 9f3b 8608 23bd 9fef b43d
00000180: ebfd a4bd 8c37 983d f313 18bd b6ac 9ebd
00000190: 6a17 1e3d aadf 413d 6245 babd f251 cc3c
000001a0: 8f08 8d3d e0d8 54bd e070 70bd 90a1 7dbd
000001b0: 3405 06bd 9c06 f03c 9819 453c 3caa 343d
000001c0: 6ccf 8fbd 6265 26bd fdaa 65bd 2056 f0bb
000001d0: 323c 83bc 45c2 cbbc 00c2 103c 35ee 9b3d
000001e0: d8d4 a7bd c2e4 2ebb 1147 5abd 9a08 273d
000001f0: 9750 7abd 6da1 d43c faae 91bc b659 89bb
00000200: 260d 833d b79b 93be 438c 743d 0bff 32be
00000210: 4243 5ebe 3440 283d dcee fe3d 93cb bfbe
00000220: 3cb1 c73d 398e 333e e931 b8bd c0f1 6bbe
00000230: 90c4 143e 40c7 a4bd 1ea5 19bc 835d 783d
00000240: 4346 7cbe 98b1 a4bd 60a4 d13b 3a89 6c3e
00000250: 329b 823d b3ce f63d d22c 913d 915d 84be
00000260: 7a6c cb3d 1a99 1e3d b0fe d53d 82df 823d
00000270: 6e45 a73e 3ab8 e33d 7c9e dbbd d258 783e
00000280: 214c 053e 500d 67bc 2f9c 333d 5783 8fbd
00000290: 9e48 0a3e 6d0c 8ebd 6eb4 4a3e f4eb 51be
000002a0: c1c2 ba3c a4e4 07be 3d32 d73e ff08 a8bd
000002b0: 0829 3c3e b03a 813e c9d1 353e 1881 febc
000002c0: 2163 2dbd 384e 39be 4a2e 6d3d 841c 153d
000002d0: 5fe1 7a3e 9a44 43be deea dd3d 8056 a1be
000002e0: a7df 83bc d1bc 2d3d 9459 5fbe 15c1 18be
000002f0: be30 403e e46d c8bd 150e 0dbd 7ff8 d2be
00000300: 3f1c 113e ca6e 3dbd 9bf7 01be 8e6c f53d
00000310: e69c 75be 9ff1 c73d c070 37be 85b6 2d3e
00000320: 5012 f5bd a09c a13d 2224 073e f7b9 8ebc
00000330: 040e 7f3e 196b 2ebe f8eb c83e ba75 94bd
00000340: 750f 79bd a560 8f3e 2711 af3e e4a8 3c3e
00000350: 0e6f 48bc bf58 cb3d cc08 07be ead8 bebc
00000360: bcc8 ba3d 33f5 fd3d 2ea4 e03d ce2b 69bd
00000370: fffa 40be 753e 3a3e 3f27 4bbe 8c07 adbd
00000380: 3aac b3bd 6172 a03e 94ff a6bd fb3c a43b
00000390: dbd4 b8be c41c 1cbb 7e52 22bd c796 763e
000003a0: 2e44 c9be 910a d5bd 5787 5bbd 5852 bfbd
000003b0: 5740 ff3d 2f36 14bf be78 f23d 6cd9 933d
000003c0: 80e4 b83d e189 1f3d 9ff8 48be 3c38 c83d
000003d0: b6f7 42be 1afe b13d 34ef 05bf a953 4f3e
000003e0: ea33 d83e 76ac fe3d 27a7 91be 3445 1a3e
000003f0: ab91 7fbe 6834 803e 71a1 3dbc ebf2 473e
0.038830545 -0.09097652 -0.079906374 0.004326399 -0.014422633 -0.03899341 -0.07052335 -0.08078673
-0.08630493 -0.040901188 -0.021029867 -0.03796743 0.08149196 -0.028181478 -0.05088627 -0.040201582
0.026105843 -0.07104805 0.060403697 0.06189459 -0.014253357 -0.0057918727 -0.0072056875 -0.061239507
-0.033712275 0.05831621 0.0018782765 -0.047908653 -0.0003760713 -0.013992951 0.007530803 -0.007919669
-0.05763627 0.043437622 0.049668573 0.023205781 -0.06411856 -0.060293227 -0.017436925 -0.08436466
-0.06770141 0.015911944 -0.08363702 -0.0026162118 0.065505706 -0.08636128 -0.073308 -0.051943768
-0.056045678 0.06678401 -0.01541698 0.03270034 0.030793808 0.030860245 -0.083369344 0.04200106
0.04277963 0.048101757 0.053580336 0.059890818 0.07210424 -0.057051912 -0.07346419 -0.06578649
-0.08170674 -0.08218859 -0.06982556 0.008585909 0.011684269 -0.05110793 -0.014529876 0.020527177
-0.009149339 -0.08176738 0.04729285 0.07919164 -0.026429502 -0.016403921 0.012880541 -0.01996041
0.0039442154 0.029584989 0.07915104 0.04678873 0.01594548 -0.060128085 0.030656964 -0.03857098
-0.04084117 0.0028807148 -0.07091214 -0.017117666 -0.033921637 0.0048722997 -0.03980305 0.088347666
-0.080562435 0.0743247 -0.0371284 -0.07747786 0.03859655 0.047332443 -0.09095265 0.024941418
0.06886398 -0.05196464 -0.058701396 -0.061921656 -0.032719806 0.029300027 0.012030028 0.04410766
-0.070219845 -0.04062403 -0.05607127 -0.0073344857 -0.016019914 -0.024872908 0.008835316 0.07613794
-0.081948936 -0.0026686643 -0.05329043 0.040779687 -0.061112013 0.02595588 -0.01778363 -0.0041916026
0.06398992 -0.28829738 0.059704076 -0.17480104 -0.21705344 0.041076854 0.124479026 -0.37460002
0.09750602 0.17534722 -0.089938946 -0.23041439 0.14528108 -0.080458164 -0.009377746 0.060636055
-0.24636178 -0.08041686 0.006397769 0.23099223 0.063772574 0.120511435 0.07088627 -0.25852636
0.099328 0.038720228 0.104489684 0.06390287 0.32670158 0.11119123 -0.10723588 0.24252632
0.13017322 -0.014102295 0.04385012 -0.07007473 0.13504264 -0.06935964 0.19795391 -0.20500165
0.022797944 -0.13270813 0.42030516 -0.08204841 0.18375027 0.25240088 0.17755808 -0.031067416
-0.042330865 -0.18096244 0.057905473 0.036404148 0.24500035 -0.19069138 0.10835813 -0.31511307
-0.016097857 0.042416397 -0.21811515 -0.14917405 0.18768594 -0.09786585 -0.034437258 -0.41205212
0.14170931 -0.046248235 -0.1269211 0.11983596 -0.23985633 0.097628824 -0.17914104 0.16964157
-0.119663835 0.07891202 0.13197377 -0.01742266 0.2490769 -0.17033042 0.3924253 -0.07249017
-0.060805757 0.2800342 0.34192774 0.18423802 -0.012233509 0.09929036 -0.1318695 -0.023296792
0.09120318 0.12400284 0.10968815 -0.05692654 -0.18845747 0.18187888 -0.1983919 -0.08448705
-0.08773084 0.31337264 -0.081542164 0.0050121523 -0.36099896 -0.0023820857 -0.039629452 0.24080954
-0.3930983 -0.10402406 -0.053595867 -0.09341878 0.12463444 -0.5789518 0.11839436 0.07219204
0.09027958 0.03894985 -0.19626091 0.09776351 -0.19039807 0.08691044 -0.5231812 0.20246758
0.42227107 0.12435238 -0.2844784 0.15065461 -0.24957912 0.25039983 -0.011574135 0.1952626

fc2.bias f4 [64]
00000000: e33b 9abd 2424 2f3d cb56 973d 5ed9 9abd
00000010: 3890 9e3d e92f 95ba 4e4d 143e 4dff 5f3d
00000020: 34ef 563d b9be ff3d 9152 9abd 5a4f 873d
00000030: 7ea9 c63d 1bcf 693d 32be ddbd 1955 c53d
00000040: f70d c73d 5b92 8abd 36d7 a83d 1409 263c
00000050: 7a77 4b3d 898e c73d 9772 0a3e 1b15 863c
00000060: 0fa3 2e3d 1229 ccbc 1c58 9c3d 739d 873d
00000070: 5c46 163e 3703 1b3e 5d18 063b 3851 363c
00000080: 4746 173e 55a1 093d 89be 823d 3355 013d
00000090: 3033 243e 2fd1 823d db62 81bd 2d9c e93d
000000a0: 4989 0b3e 4f46 903d f261 473e 2604 163e
000000b0: 96e4 d83d 3b90 513e 071b a93d 9bec b93d
000000c0: 1093 43bd 2dca ec3d 995f 423e 058b 263e
000000d0: 031c 26bd dcf6 683d 009f 123d f78b 99bc
000000e0: 4eb7 683d 8370 873b c532 dc3d 3ae4 133e
000000f0: d21f e83c 7087 b1bc f357 a9bd 8baa 263d
-0.07530954 0.042759076 0.07389601 -0.07560991 0.07742351 -0.0011382076 0.14482614 0.054686833
0.052474216 0.12487549 -0.075352795 0.06606932 0.09700297 0.057082277 -0.108272925 0.09635372
0.097194605 -0.06766196 0.08244173 0.010134 0.04967449 0.09743983 0.13520275 0.016367486
0.042635974 -0.024921928 0.07633993 0.06621828 0.14675277 0.15137945 0.00204613 0.0111277625
0.14772902 0.033601124 0.06383998 0.031575393 0.16035151 0.06387555 -0.06317683 0.11406741
0.13626589 0.0704466 0.19470957 0.1465002 0.10590474 0.20465176 0.08257108 0.09078332
-0.04774767 0.115619995 0.1898178 0.16263969 -0.040554058 0.05687605 0.035796165 -0.018743498
0.056815438 0.0041332855 0.10751871 0.1444253 0.028335486 -0.021671027 -0.08268728 0.040689986

fc3.weight f4 [9, 64]
00000000: 52c2 9a3d 9d6e 4cbe a599 83be e261 ae3e
00000010: e342 883d f21b ab3e ba63 8abd 0b92 643e
00000020: 74e9 92be 6d4d 783e a1e0 a43d c6a2 b0bd
00000030: 5218 063e adf6 163e 37e6 893e 89f3 173e
00000040: db38 893e 2a69 a8bd c5ab 7ebf f0d9 5a3e
00000050: edfd c73e c8d8 dd3d fb66 63be 0629 8fbd
00000060: 9fb5 29bc b68d a0bf a8e3 383e 618c 6d3e
00000070: 0106 073c aa3b c03d f228 55be bca4 ab3e
00000080: cfad d3bc 9cda 82be c8ea 893d 65e8 513e
00000090: 379b 72be c792 cc3e 99fe 983e 6684 b13d
000000a0: c1f3 b0bd d21f cabe d204 adbe eb13 46be
000000b0: 860e bebe 36d9 c8be 116e 9bbe 1e66 df3c
000000c0: c461 81bd 1b4f 0c3e 4e73 13be 3de5 c9bd
000000d0: ab82 283e 8558 ed3d 576f aabf 0566 e13d
000000e0: 86bb 91bf 01c8 ab3e fd98 fe3d 00f9 a73e
000000f0: cb6b 8c3e ca01 ac3e 9f26 c83e d7fd 62bc
00000100: 5559 993c 376f 273e e817 f4bb be0b ecbd
00000110: 67fd 813e edbe 88bd 41bb d6bf 9f63 5e3e
00000120: cb77 a6bb 512c 1dbd fd09 a83d cc6f a9bd
00000130: 7f8d 11bd 3f39 8d3e f1fa 503e c52c b6bf
00000140: 4a97 f4be 7a5a 8c3e 242b 283d 6f61 7b3e
00000150: aaa5 ec3c 3bdf f8be dab2 adbb a1ab 8abd
00000160: f36f 073e c52f 053e 5ae6 1ebe bf9e 50be
00000170: 76dd 083e e2bd c8bf 1a31 983e 56ee 253d
00000180: 58cc 97be 69ce 3a3d 417b 7dbd 9391 ad3d
00000190: 6a84 babe 912c cfbd 8e75 0ebe 42be 573e
000001a0: 46c7 c53e c43a 7b3e d0d6 e63b bafb a93c
000001b0: 2070 87be ca1f 483e e7aa 293e 336c 4abd
000001c0: b9a4 8e3e 13a7 073e 5aa6 31be 94dd 43be
000001d0: 203d 3abc 518f c3bc 0f2e 873e 6855 f9be
000001e0: f505 573e b6cc 2d3e e0dc e7bd 803c 2c3d
000001f0: 01d0 b0bd 3bde b6bf 4187 2c3d 978c ca3e
00000200: aaa8 fcbd 2357 85bf f0b1 6b3e 0737 9d3e
00000210: 5475 92bf a8de 6e3e f28a 723e 7603 453d
00000220: 43f6 563e f4c7 0abf 87a9 073e bb51 963e
00000230: 930e 863e cc68 dd3d a6b0 3f3e a804 c73e
00000240: 5af5 a13e 2e72 0e3e 1f59 013d 7dbd 153e
00000250: 776f a8be c9f5 03bf e358 e43d 235c a63e
00000260: f956 9f3e dc3c 063e 6140 e5be 97e4 12be
00000270: eff3 7fbf 53be 183d 0f7a 4c3e fb87 9f3e
00000280: f0d9 abbe 33bd 8d3d f515 e43d 361b 583d
00000290: bb0c 98bd 6e6b 19bf 8190 9dbd 13a0 3abe
000002a0: 03a5 bf3c 8d6a a0bd 152c 6b3e 48fe 71bc
000002b0: 648f 21be a8df f6bd a088 acbd a503 23be
000002c0: 43e0 34be 711c abbf cef6 133d dfb9 9b3e
000002d0: 1fa0 553e bb7f 26be 1c55 ab3e 4565 883e
000002e0: b833 8cbd f4c1 983e f4a9 a1be 45b9 2bbe
000002f0: 10c3 a9bc 19fa ab3e 107a b1be 9f51 82be
00000300: 7241 97bd 9682 653e 907e 973e 5dee c53e
00000310: dc3c 09bd fd82 26be 86d5 1f3e c49e 78be
00000320: 1386 8bbe a569 a8be b8e9 613e 15e6 353e
00000330: 846f 3cbf d79d 09bf 6a57 a1be b457 aa3b
00000340: 73ac 3b3e 5de7 e7bc 03ac 23be 6a44 c9be
00000350: 6b3d f3bd e40d 62bd 2441 023e eb4d 94be
00000360: 22a4 cb3e 9232 173e 5ce9 c23e 7872 3dbe
00000370: 3e65 983e 6346 163e 1ced e73e 436e 113e
00000380: dc8d a63e ef64 ba3e 3d17 143d d301 4abe
00000390: b85a babe 74a9 97bd 7a84 8a3d 901a 3a3c
000003a0: dd08 ad3e 90d9 3e3e 7871 96be 6546 9c3d
000003b0: 3ea6 ccbe 29c8 24be bd88 4ebf 0ad1 0e3e
000003c0: c241 e3be a480 073e f3d4 82be 8508 81be
000003d0: 4119 3dbe 5888 2f3e f211 333c e770 d63d
000003e0: e010 653e 425d 20be 558e bf3e ec45 89be
000003f0: ec48 3b3b 811b b53c a6ac 15bf e099 463e
0.07556595 -0.1996407 -0.2570316 0.34059054 0.06653383 0.33419758 -0.067573026 0.22321336
-0.28693736 0.24248286 0.08050657 -0.086247966 0.13095215 0.14742537 0.26933452 0.14838995
0.2680119 -0.082231835 -0.9948085 0.21372199 0.39060917 0.10832363 -0.22207253 -0.069902465
-0.010358243 -1.2543247 0.18055594 0.23198082 0.008241178 0.0938638 -0.208164 0.3352412
-0.025839714 -0.2555741 0.06734234 0.20498808 -0.23692022 0.39955732 0.29881743 0.08667831
-0.08640242 -0.39477402 -0.3379274 -0.19343536 -0.37120456 -0.3922822 -0.30357412 0.027270373
-0.063174754 0.13702051 -0.14399454 -0.09858177 0.16456096 0.115891494 -1.3315228 0.11005787
-1.1385353 0.33551028 0.12431524 0.3280716 0.2742599 0.33595115 0.39091966 -0.013854465
0.018719355 0.16351019 -0.007449139 -0.11525677 0.25388643 -0.06677041 -1.6775895 0.2171769
-0.0050801984 -0.03837234 0.0820503 -0.08273277 -0.03553533 0.27582738 0.20408227 -1.4232413
-0.47771674 0.27412778 0.041056767 0.24548887 0.028887589 -0.4860781 -0.005300862 -0.06771017
0.13226299 0.13006504 -0.1551756 -0.20373057 0.1336573 -1.5682948 0.29724962 0.040510498
-0.2964809 0.045607004 -0.061885122 0.08475032 -0.3642915 -0.10115922 -0.13912031 0.21068671
0.38628596 0.24534136 0.0070446506 0.020749915 -0.26452732 0.19543377 0.165691 -0.049419593
0.27860048 0.13247328 -0.17348614 -0.19127494 -0.011367112 -0.02387205 0.26402327 -0.48697972
0.20998366 0.16972622 -0.113214254 0.042049885 -0.086334236 -1.4286569 0.042121176 0.39560387
-0.123368576 -1.0417217 0.23017097 0.30706045 -1.1442056 0.23327124 0.23685816 0.048099004
0.20992379 -0.54211354 0.13248263 0.2935923 0.26182994 0.10811004 0.1871973 0.3887074
0.316325 0.13910744 0.031579133 0.14623065 -0.3289754 -0.51546913 0.11149766 0.3249217
0.31121042 0.13109154 -0.4477568 -0.14345013 -0.9998159 0.037290882 0.19968437 0.31158432
-0.3356471 0.069208525 0.111370005 0.052760325 -0.07424303 -0.5992955 -0.076935776 -0.18225126
0.023394113 -0.07832823 0.22966035 -0.014770098 -0.15777355 -0.12054378 -0.08424497 -0.15919359
-0.17663674 -1.3368055 0.036124043 0.30415246 0.20861863 -0.16259663 0.3346337 0.26639763
-0.06845802 0.29835474 -0.31574976 -0.16769893 -0.020722896 0.33589247 -0.3466344 -0.25452897
-0.073855296 0.22413096 0.29588747 0.3865842 -0.033505306 -0.16260906 0.15608796 -0.24279314
-0.27250728 -0.328931 0.22061813 0.1776355 -0.7360766 -0.5375647 -0.31512004 0.0051984433
0.18327503 -0.028308565 -0.15983586 -0.39310008 -0.11876949 -0.05518903 0.12720162 -0.28965697
0.3977366 0.14765385 0.38068664 -0.18500698 0.29764742 0.14675288 0.45298088 0.14202218
0.32530105 0.3640513 0.036154974 -0.19727258 -0.36397338 -0.074053675 0.06763549 0.011358872
0.33795825 0.18637681 -0.29383445 0.07630614 -0.39970583 -0.1609198 -0.80677396 0.1394693
-0.44386107 0.13232666 -0.25553092 -0.25201812 -0.18466665 0.17141855 0.010929571 0.10470753
0.22369719 -0.15660575 0.37413278 -0.2681116 0.00285774 0.022107841 -0.58466566 0.19394636

fc3.bias f4 [9]
00000000: 049f 01be 3983 5f3c c61d 4bbd 42a9 fcbd
00000010: a898 f53c 7a43 2bbc 4c62 3c3b c188 413e
00000020: 4dc0 1fbd
-0.12658316 0.013642126 -0.04958894 -0.12336971 0.029980019 -0.010453099 0.0028745113 0.18899824
-0.03900175
