agents_and_games/data/TicTacToe_AgentMinimax_test/model.pth (torch, 42676 bytes, 6 tensors)

fc1.weight f4 [128, 9]
-0.75843763 0.14420287 0.18565509 0.81379384 -0.14629109 0.02443233 -0.16138186 0.41983655
0.28761303 0.45186582 -0.38909385 0.34468174 -0.61897033 0.30263203 0.5485136 -0.40423077
-0.13401762 0.16102545 0.38965464 -0.024663432 0.050826468 -0.58571136 0.48223478 -0.43162683
-0.020890504 0.5910388 -0.13708904 0.205662 -0.743954 0.8415307 0.39794952 -0.06331495
-0.07546042 0.07234312 -0.580169 -0.0685615 -0.09197572 0.77138245 0.14745986 -0.46565753
0.08822301 0.3689775 -0.20089836 -0.31667235 0.24678558 0.11226109 0.2824044 0.22902983
0.012062549 -0.6213848 0.35301873 -0.43309158 -0.5481292 -0.12172672 0.4088442 -0.1278786
-0.10221666 0.5208079 -0.21727931 0.43267196 0.4370037 -0.3401317 -0.20886539 0.24456538
0.42850772 0.07958678 -1.3521385 0.03534369 0.21032456 0.3191862 0.09570261 0.09978652
-0.22963141 -0.39181638 -0.123465456 -0.20494577 -0.21758655 1.8230587 -0.15462065 -0.29124042
-0.27865872 -0.28219816 -0.33654997 -0.3635521 0.25658992 1.0500557 -0.04926392 0.29096454
0.08757914 0.2738865 0.56863904 -0.018916633 -0.2513063 -0.18572019 -0.20761757 -0.35136226
0.05687766 -0.3094713 -0.13424498 0.32026646 0.05830348 -1.4341506 0.28972992 0.19987574
-0.112277806 0.45759088 0.22432171 0.35694507 0.14062507 0.13551587 0.09773872 0.05490709
0.5173194 -1.5764645 0.35990936 0.39770788 0.35156003 0.88885385 -0.44945255 -0.65357655
-0.086553 0.0099033825 -0.097844705 -0.06603052 -0.06368338 -0.13675652 0.24561362 -0.4786341
0.33561608 0.4968245 -0.49279985 -0.46551278 0.23215558 0.3345604 0.20794077 -0.40276438
0.24188538 0.91662556 0.08227953 -0.3652626 -0.16198494 -0.32750922 -0.3172081 -0.013400903
0.15175492 0.03694881 -0.3404633 -1.5883415 -0.21741292 0.28837875 0.13387315 -0.043584213
-0.20007432 -0.7882523 0.25512075 0.485619 -0.18784182 0.29063496 0.38283047 0.2859374
-0.7062655 -0.23831752 -0.64690197 -0.22342823 0.42690775 0.14443463 -0.36373624 0.38757414
0.40781194 -0.36969632 0.36586216 -0.6870997 -0.026704118 -0.2845706 0.44872424 -0.498021
0.7561779 0.52655894 0.10517387 0.15361963 -0.1823925 -0.10957937 -0.065814316 0.11519113
0.16903366 -0.09950362 0.33418694 1.5357496 -0.39963248 0.5068132 -0.049334016 -0.44317737
-0.019075885 -0.19591373 -0.19378424 -0.69156504 -0.49529347 -0.39137635 -0.06059554 0.47314703
0.07126935 0.2185875 0.319139 -0.19171181 -0.33028904 -0.50991035 -0.5257372 0.0998246
-0.65594953 -0.10612403 0.34177172 0.6896108 0.66805613 -0.61125916 -0.278463 0.5755326
0.26280615 0.95065373 0.2164824 -0.46044835 -0.047926225 -0.22304846 -0.44228518 0.48898312
-0.6681007 0.3146373 0.025096852 -0.25035098 -0.6179289 0.1285307 -0.63915557 0.057670403
0.6734618 -0.2438605 0.5447589 -0.36193436 0.49387416 -0.6032652 0.0660791 -0.35429367
-0.26300165 -0.5568932 0.225203 -0.49183148 0.4203996 -0.37113884 0.5443314 0.26586187
0.3246617 -0.186741 0.46048597 -0.19700728 0.87293804 -0.069231324 -0.27241862 -0.24048883
00000000: f828 42bf eba9 133e 5e1c 3e3e cb54 503f
00000010: 55cd 15be 4f26 c83c 4941 25be d1f4 d63e
00000020: 0442 933e f55a e73e 4f37 c7be 207a b03e
00000030: d774 1ebf 96f2 9a3e 636b 0c3f 56f7 cebe
00000040: ea3b 09be dbe3 243e d080 c73e f70a cabc
00000050: 6a2f 503d 2ef1 15bf 7ae7 f63e 31fe dcbe
00000060: 9022 abbc 524e 173f 1261 0cbe 0f99 523e
00000070: c573 3ebf 8e6e 573f 0ac0 cb3e 45ab 81bd
00000080: fe8a 9abd a128 943d f585 14bf f969 8cbd
00000090: c45d bcbd 5279 453f b8ff 163e aa6a eebe
000000a0: 44ae b43d 9eea bc3e 4db8 4dbe e122 a2be
000000b0: 5cb5 7c3e 24e9 e53d 4f97 903e cc86 6a3e
000000c0: ffa1 453c 1313 1fbf dfbe b43e 2ebe ddbe
000000d0: 3252 0cbf dc4b f9bd 0754 d13e 9cf2 02be
000000e0: f856 d1bd ab53 053f 787e 5ebe 2e87 dd3e
000000f0: f3be df3e be25 aebe cfe0 55be 596f 7a3e
00000100: 5d65 db3e 65fe a23d e012 adbf 8cc4 103d
00000110: 525f 573e 606c a33e bbff c33d e05c cc3d
00000120: 7f24 6bbe 289c c8be 75db fcbd 4edd 51be
00000130: 02cf 5ebe fd59 e93f e054 1ebe 771d 95be
00000140: 5bac 8ebe 477c 90be 4750 acbe 8023 babe
00000150: c15f 833e 3a68 863f f7c8 49bd 4ef9 943e
00000160: b15c b33d da3a 8c3e 5492 113f 0ef7 9abc
00000170: 38ab 80be 6f2d 3ebe b399 54be c1e5 b3be
00000180: 8df8 683d 0673 9ebe 8477 09be f7f9 a33e
00000190: a1cf 6e3d 3f92 b7bf 7b57 943e 3aac 4c3e
000001a0: e8f1 e5bd 5a49 ea3e 97b4 653e 81c1 b63e
000001b0: 0500 103e acc4 0a3e 3d2b c83d 42e6 603d
000001c0: 0b6f 043f 97c9 c9bf 0a46 b83e 5ea0 cb3e
000001d0: adff b33e ed8b 633f a51e e6be cb50 27bf
000001e0: b342 b1bd cc41 223c ce62 c8bd 023b 87bd
000001f0: 6f6c 82bd e709 0cbe 2382 7b3e 870f f5be
00000200: dfd5 ab3e c85f fe3e 4350 fcbe b157 eebe
00000210: 31ba 6d3e 804b ab3e 6dee 543e 2237 cebe
00000220: cdb0 773e f9a7 6a3f 2c82 a83d b303 bbbe
00000230: 61df 25be 4aaf a7be 1a69 a2be 768f 5bbc
00000240: a465 1b3e a357 173d 3551 aebe c64e cbbf
00000250: 7ea1 5ebe 61a6 933e 0b16 093e 5c85 32bd
00000260: 48e0 4cbe e7ca 49bf 309f 823e 0ea3 f83e
00000270: 9b59 40be 1bce 943e 5b02 c43e 6366 923e
00000280: d1cd 34bf 8209 74be 5e9b 25bf 5fca 64be
00000290: a793 da3e ace6 133e a33b babe 1e70 c63e
000002a0: bacc d03e d648 bdbe 4952 bb3e c4e5 2fbf
000002b0: 98c2 dabc 3db3 91be 2fbf e53e 9cfc febe
000002c0: e094 413f 91cc 063f 6665 d73d 774e 1d3e
000002d0: 19c5 3abe 266b e0bd a8c9 86bd 54e9 eb3d
000002e0: 2917 2d3e 8ec8 cbbd 8d1a ab3e 7193 c43f
000002f0: a19c ccbe 83be 013f 7712 4abd 25e8 e2be
00000300: 0845 9cbc 9c9d 48be 606f 46be 680a 31bf
00000310: 1b97 fdbe 7b62 c8be 0733 78bd 5440 f23e
00000320: aaf5 913d 67d5 5f3e 3066 a33e 1a50 44be
00000330: a51b a9be 7c89 02bf b796 06bf d770 cc3d
00000340: 4fec 27bf 8e57 d9bd b4fc ae3e 558a 303f
00000350: ba05 2b3f 7b7b 1cbf b492 8ebe 1b56 133f
00000360: 878e 863e 0b5e 733f 90ad 5d3e e3bf ebbe
00000370: 4a4e 44bd d166 64be 3473 e2be ff5b fa3e
00000380: a608 2bbf 2418 a13e ea97 cd3c 012e 80be
00000390: 9730 1ebf 8d9d 033e b39f 23bf cd37 6c3d
000003a0: fe67 2c3f 91b6 79be 5275 0b3f 764f b9be
000003b0: 13dd fc3e 976f 1abf 7b54 873d fb65 b5be
000003c0: 27a8 86be 8e90 0ebf 9d9b 663e 56d1 fbbe
000003d0: 9e3e d73e e905 bebe 4d59 0b3f 0c1f 883e
000003e0: 0f3a a63e 0839 3fbe d1c4 eb3e 47bc 49be
000003f0: de78 5f3f 27c9 8dbd 747a 8bbe b442 76be

fc1.bias f4 [128]
0.09294615 0.056034278 0.262115 0.1441153 0.40657052 0.31432596 -0.011901402 0.38870633
0.16279513 0.07310842 0.49897954 0.13142198 -0.17084278 0.3723006 -0.12989241 -0.085587695
0.06341928 0.23791997 0.21086806 0.1212523 -0.10014199 0.021971945 0.45757768 0.009327051
-0.023245526 0.07493836 0.21069989 -0.2917862 0.0706338 -0.16818129 -0.17789681 -0.14349975
0.16431606 -0.079990074 0.15620019 0.29285088 -0.01619359 0.38169578 0.21233791 -0.00049744593
0.34204838 0.1073597 0.06839958 -0.18794695 0.05993301 -0.017422173 -0.056787997 0.12080118
-0.039701227 0.4222815 0.31708425 -0.020975709 0.62360126 0.48523587 0.15331843 0.1374854
0.09164403 -0.16465183 0.015779788 -0.17614427 0.011797014 -0.15407541 0.029251808 0.28839105
0.09151695 0.5324155 0.46726954 0.35929295 0.33071345 0.466816 0.059284985 0.1418459
0.16046824 -0.14678432 -0.12746005 0.3358555 -0.06025363 -0.019258495 0.3791416 0.28096202
0.23683715 0.049905658 0.07026905 0.4120756 0.19536218 -0.023875827 -0.05156626 0.27209666
-0.17035724 0.16943048 0.06034349 0.32222262 0.10336846 -0.16471745 0.3898459 -0.11819232
0.20639743 -0.20600036 -0.2639987 0.022001902 -0.023758322 0.10958119 0.17355081 0.051261377
-0.072981454 0.283132 -0.109302 0.096512206 -0.042156212 0.24015017 0.06850791 0.5470259
0.23600228 0.0439868 0.2686048 0.20219162 -0.10285801 0.18417901 0.10156269 -0.09907983
-0.10271281 0.077881925 0.1077337 0.210361 0.10426803 0.16940169 -0.072173834 0.13819197
00000000: 8d5a be3d 3384 653d f033 863e f692 133e
00000010: 032a d03e 55ef a03e 19fe 42bc 8404 c73e
00000020: c4b3 263e deb9 953d 3f7a ff3e 7c93 063e
00000030: 69f1 2ebe 2f9e be3e 8402 05be 9a48 afbd
00000040: f8e1 813d 4ba1 733e cced 573e 2053 f83d
00000050: 3e17 cdbd 82fe b33c 9f47 ea3e 7dd0 183c
00000060: 676d bebc 4879 993d b6c1 573e 0065 95be
00000070: 74a8 903d b737 2cbe 952a 36be 99f1 12be
00000080: 7842 283e d6d1 a3bd f1f2 1f3e 8df0 953e
00000090: 6ba8 84bc a16d c33e 1c6f 593e 0867 02ba
000000a0: f720 af3e 67df db3d 1415 8c3d 2a75 40be
000000b0: 517c 753d f2b8 8ebc 889a 68bd 9c66 f73d
000000c0: c19d 22bd 4835 d83e de58 a23e 40d5 abbc
000000d0: 55a4 1f3f d670 f83e 82ff 1c3e f9c8 0c3e
000000e0: ddaf bb3d 7d9a 28be 9d44 813c 2a5f 34be
000000f0: 4348 413c f2c5 1dbe 7da1 ef3c fea7 933e
00000100: 3d6d bb3d 624c 083f f43d ef3e 3ff5 b73e
00000110: 4653 a93e 8202 ef3e d0d4 723d 0d40 113e
00000120: c951 243e a14e 16be e384 02be 41f5 ab3e
00000130: 83cc 76bd fec3 9dbc d91e c23e 41da 8f3e
00000140: 7085 723e e069 4c3d 38e9 8f3d 93fb d23e
00000150: 060d 483e 3d97 c3bc 2537 53bd 4150 8b3e
00000160: 2172 2ebe 2f7f 2d3e bc2a 773d 5dfa a43e
00000170: d8b2 d33d b1ab 28be e299 c73e d10e f2bd
00000180: d959 533e c2f1 52be d62a 87be 553d b43c
00000190: d0a0 c2bc 1a6c e03d 4eb7 313e 73f7 513d
000001a0: 4d77 95bd adf6 903e bad9 dfbd 31a8 c53d
000001b0: feab 2cbd ede9 753e e04d 8c3d e409 0c3f
000001c0: 95aa 713e 812b 343d 9186 893e 520b 4f3e
000001d0: 38a7 d2bd 6c99 3c3e 1a00 d03d 5eea cabd
000001e0: 185b d2bd 8f80 9f3d 7ca3 dc3d e068 573e
000001f0: 7a8a d53d a377 2d3e e0cf 93bd 3282 0d3e

fc2.weight f4 [64, 128]
-0.14655973 0.0043182955 0.10921374 -0.00492647 -0.0073534036 -0.24263513 0.033731416 -0.02261456
-0.1129891 0.24250978 -0.046341844 0.09273876 0.16930078 -0.1484608 -0.14128402 0.12487716
-0.1885539 0.05216978 -0.2356601 -0.13993363 0.036674798 -0.26563329 0.25475022 0.19672409
-0.1435317 0.16054565 0.002228608 -0.2619929 -0.08889748 0.0365667 0.16844296 0.019295746
0.13663192 0.14446855 -0.4556777 0.06209001 -0.15506595 0.224624 0.1990337 0.1115842
-0.16318387 0.3587675 -0.20112143 0.10659771 -0.14128101 0.1951565 0.14384516 -0.16117863
0.11487928 0.10389378 0.22288422 0.012644502 0.09191298 0.16023718 -0.11778941 -0.005673173
0.27213395 -0.16081347 0.30264026 0.042938158 0.12862858 0.19262737 0.0009787318 -0.058722496
-0.009637089 0.019073065 0.2686763 -0.027500983 0.18676327 -0.13547775 -0.10452046 -0.1806378
0.14671543 -0.1600324 -0.21770455 0.009872072 -0.13008942 -0.19271675 0.10828282 -0.13877212
0.0830734 -0.50342494 0.033343714 0.21326989 0.10502681 0.13790974 -0.12546167 0.1902166
0.028462226 -0.17856151 0.11870087 -0.07247053 -0.035041198 -0.106608175 0.04041933 -0.031677056
0.1271375 0.18501264 0.18230043 0.30865496 -0.49636877 -0.06406759 -0.0839978 -0.10903743
-0.432855 0.08110396 -0.118251994 -0.092257924 -0.10392779 0.02654103 0.05382766 0.16491579
0.2463128 0.15633701 0.0740323 0.09379799 0.076531276 0.021068055 -0.33600372 -0.32212314
-0.1985661 -0.013695798 0.115617916 0.015670631 0.119164206 -0.024436947 -0.008783101 -0.19417614
-0.19406278 0.1332249 0.16353609 -0.011903668 0.16964893 0.10348976 0.04282323 0.2761418
-0.0792758 -0.11109105 0.07487296 -0.09405453 -0.113099806 -0.12315881 -0.054357544 -0.09232664
0.32708743 0.11521986 0.22985367 -0.07762119 0.6196154 -0.06894705 0.0037333374 0.087457225
0.20647071 0.37012517 0.26767993 -0.024790369 0.058444936 0.0031381818 -0.021374373 -0.08343739
-0.07960424 0.33257297 -0.052352317 -0.004184982 0.07306202 -0.06776382 0.007011327 -0.14310151
0.11433649 -0.17156051 0.2068348 0.8851693 0.11792521 -0.025687765 -0.2007336 -0.080417335
0.24723724 -0.030234754 0.017088523 0.04458053 0.047123134 -0.03239145 0.070102796 -0.061152168
0.015046921 -0.23784967 -0.11281845 -0.011655068 -0.19858643 -0.22748809 -0.13387084 -0.17967688
0.0053008744 -0.036364723 -0.124165036 0.013456272 0.437743 0.039488602 0.284522 -0.135344
0.13054694 0.028550131 -0.007254132 0.21497293 0.16687238 -0.13409808 -0.21102601 0.10347055
0.18716818 -0.19062759 -0.018147102 -0.1407213 0.19749285 -0.16847242 -0.06593796 0.09103695
-0.02251474 -0.014306703 0.072098665 0.03230222 -0.038760226 -0.5097103 -0.08054153 -0.025156116
-0.058750656 0.23675458 0.10196069 -0.032734286 -0.096037395 -0.1104104 0.10311715 -0.029391062
0.056545384 0.09098946 0.241674 -0.0046519195 0.16954815 0.4839468 -0.040212497 -0.0455705
0.09788354 0.36165947 -0.030613627 0.27234754 0.24069369 0.12994322 -0.13506228 0.37570208
-0.029952819 0.16435108 -0.05911179 0.04876289 0.040078595 -0.024346206 0.08384986 0.088468745
00000000: c113 16be 7d80 8d3b 74ab df3d 3a6e a1bb
00000010: d2f4 f0bb 5875 78be f429 0a3d 2b42 b9bc
00000020: d466 e7bd 7c54 783e f2d0 3dbd d2ed bd3d
00000030: 2f5d 2d3e 1c06 18be c2ac 10be 99bf ff3d
00000040: 4614 41be fbaf 553d e250 71be c34a 0fbe
00000050: 5038 163d 1601 88be 9f6e 823e 0a72 493e
00000060: f9f9 12be 1466 243e d60d 123b ef23 86be
00000070: e20f b6bd f7c6 153d 507c 2c3e 1d12 9e3c
00000080: 3de9 0b3e 90ef 133e 964e e9be 1852 7e3d
00000090: 9cc9 1ebe d503 663e 7ecf 4b3e 4286 e43d
000000a0: ac19 27be 60b0 b73e c7f2 4dbe e64f da3d
000000b0: f8ab 10be 1bd7 473e 254c 133e 030c 25be
000000c0: d445 eb3d 43c6 d43d c33b 643e e32a 4f3c
000000d0: df3c bc3d 3715 243e 933b f1bd 06e6 b9bb
000000e0: 2455 8b3e 49ac 24be aaf3 9a3e ecdf 2f3d
000000f0: 36b7 033e 1c40 453e ca48 803a 0087 70bd
00000100: e2e4 1dbc 1e3f 9c3c f18f 893e be49 e1bc
00000110: df3e 3f3e aeba 0abe d30e d6bd 1ef9 38be
00000120: 923c 163e 89df 23be f1ed 5ebe 79be 213c
00000130: 2936 05be 8a57 45be 62c3 dd3d 471a 0ebe
00000140: 6322 aa3d 75e0 00bf 6b93 083d 6c63 5a3e
00000150: 4c18 d73d 3638 0d3e 0679 00be 24c8 423e
00000160: 9d29 e93c d4d8 36be 7119 f33d 6e6b 94bd
00000170: 5c87 0fbd 6355 dabd bd8e 253d cdbf 01bd
00000180: 5530 023e f473 3d3e f7ac 3a3e 0608 9e3e
00000190: 0c24 febe de35 83bd 0a07 acbd 044f dfbd
000001a0: 2c9f ddbe d519 a63d 1a2e f2bd b9f1 bcbd
000001b0: 18d8 d4bd 936c d93c 647a 5c3d afdf 283e
000001c0: 6c39 7c3e cf16 203e 3f9e 973d 2919 c03d
000001d0: 6ebc 9c3d ea96 ac3c ae08 acbe 53ed a4be
000001e0: e954 4bbe 5764 60bc 16c9 ec3d b25f 803c
000001f0: 5d0c f43d fe2f c8bc ffe6 0fbc 1cd6 46be
00000200: 65b8 46be 1c6c 083e 0176 273e 9a07 43bc
00000210: 73b8 2d3e 70f2 d33d 6967 2f3d 7562 8d3e
00000220: 5a5b a2bd b483 e3bd ff56 993d a99f c0bd
00000230: dfa0 e7bd b03a fcbd 04a6 5ebd c015 bdbd
00000240: 0178 a73e 64f8 eb3d c35e 6b3e dcf7 9ebd
00000250: 1d9f 1e3f 1c34 8dbd 02ab 743b c61c b33d
00000260: 0f6d 533e 0c81 bd3e 580d 893e 2c15 cbbc
00000270: f563 6f3d f4a9 4d3b 4f19 afbc 39e1 aabd
00000280: 8c07 a3bd 0147 aa3e 626f 56bd 2c22 89bb
00000290: 8aa1 953d c2c7 8abd 46bf e53b 3489 12be
000002a0: 4029 ea3d 8fad 2fbe 80cc 533e 759a 623f
000002b0: c682 f13d 266f d2bc 1c8d 4dbe d8b1 a4bd
000002c0: c22b 7d3e e0ae f7bc 3bfd 8b3c 139a 363d
000002d0: 3004 413d e6ac 04bd 0e92 8f3d b27a 7abd
000002e0: 5c87 763c dd8e 73be 5c0d e7bd e6f4 3ebc
000002f0: 3e5a 4bbe a3f2 68be 7015 09be 37fd 37be
00000300: f5b2 ad3b 2df3 14bd 3d4a febd b277 5c3c
00000310: da1f e03e cdbe 213d deac 913e 9e97 0abe
00000320: 19ae 053e f7e1 e93c 12b4 edbb dd21 5c3e
00000330: 98e0 2a3e 0251 09be 3417 58be 5ee8 d33d
00000340: 04a9 3f3e e133 43be 3ba9 94bc 3f19 10be
00000350: 913b 4a3e 0984 2cbe 7b0a 87bd 9571 ba3d
00000360: d570 b8bc a966 6abc 77a8 933d 554f 043d
00000370: 0bc3 1ebd 607c 02bf f5f2 a4bd 3314 cebc
00000380: 87a4 70bd cb6f 723e c4d0 d03d 6314 06bd
00000390: 41af c4bd d91e e2bd 162f d33d 86c5 f0bc
000003a0: 229c 673d af58 ba3d 6479 773e 216f 98bb
000003b0: 089e 2d3e e0c7 f73e dcb5 24bd 22a8 3abd
000003c0: 2a77 c83d 6e2b b93e 6ec9 fabc 2371 8b3e
000003d0: 6878 763e d60f 053e c44d 0abe 065c c03e
000003e0: 9d5f f5bc a64b 283e 341f 72bd 99bb 473d
000003f0: 7429 243d b271 c7bc 7ab9 ab3d 1a2f b53d

fc2.bias f4 [64]
0.10034793 -0.14753853 -0.027402803 0.10937695 0.06329632 0.0010781933 -0.016474329 0.1254792
-0.008839032 -0.005625017 0.21487948 0.1655341 0.1732653 -0.030442694 0.0070592454 -0.048876163
-0.00246235 0.029686097 0.15042567 0.07053557 0.044107415 0.15605338 0.017694771 0.052015085
0.0973889 0.07920772 0.16853844 -0.052066233 -0.00058643764 0.11616368 0.020405877 0.15091728
0.1321475 -0.031619046 0.10505702 0.03864587 0.091601476 0.068772994 0.08802704 -0.02750087
0.06464092 0.18861537 0.05028301 -0.1856605 0.290697 0.048910663 0.10288781 0.124645226
-0.013986411 -0.05435857 0.0066343714 -0.00408361 0.20863798 -0.03608985 -0.038365975 0.037679255
0.07565216 0.095021114 0.15934138 0.04466796 0.08850027 0.03897731 -0.0972063 0.06447116
00000000: 3783 cd3d 5714 17be d87b e0bc 0601 e03d
00000010: 80a1 813d 2a52 8d3a 2cf5 86bc 9f7d 003e
00000020: 96d1 10bc 1052 b8bb 5e09 5c3e c581 293e
00000030: 756c 313e f562 f9bc 3e51 e73b 5f32 48bd
00000040: 615f 21bb 4230 f33c 3009 1a3e f474 903d
00000050: faa9 343d 75cc 1f3e a0f4 903c c50d 553d
00000060: d573 c73d a837 a23d 5795 2c3e 6743 55bd
00000070: 2abb 19ba 39e7 ed3d 3a2a a73c 0f8a 1a3e
00000080: ad51 073e f982 01bd 2328 d73d 224b 1e3d
00000090: 8e99 bb3d dbd8 8c3d 8547 b43d 8149 e1bc
000000a0: 7562 843d 6324 413e 8ff5 4d3d c91d 3ebe
000000b0: 3dd6 943e 8c56 483d d8b6 d23d ff45 ff3d
000000c0: 4227 65bc 18a7 5ebd 2465 d93b cecf 85bb
000000d0: 32a5 553e f3d2 13bd a425 1dbd 9055 1a3d
000000e0: 85ef 9a3d 6e9a c23d 632a 233e c0f5 363d
000000f0: a13f b53d aca6 1f3d 1914 c7bd 7509 843d

fc3.weight f4 [9, 64]
0.333768 0.14426449 -0.07434091 0.18794191 0.1304486 -0.9401902 0.3423582 0.21615982
-0.28181836 0.030774295 0.04689812 0.2803655 0.12233301 0.09279489 -1.0165089 -0.10383725
0.2587329 -0.22444473 0.08855294 -0.9749957 0.27643853 0.03641711 0.29379776 -0.62393725
-1.4845973 0.18090367 0.1836708 0.024632905 -0.1542643 0.25606784 -0.1454801 0.25374448
0.24052837 0.15706475 -0.102711156 -0.90334433 -1.0627242 0.07710253 -0.8029807 -0.5557732
0.13719887 0.051801175 -0.110431366 0.3061535 -0.023824656 -0.27354777 0.11874058 0.11415592
-0.7686567 0.2683556 -0.9955319 0.106795184 -0.056697585 -0.77330494 0.35881075 0.08073203
0.11158162 0.124554686 0.23842487 -0.056101363 0.25787055 -0.06416217 0.13086583 -0.43656945
-0.035540722 0.12923914 -0.020727292 -0.25281906 0.25963444 0.09090834 0.14399 -1.8915148
0.120501004 0.39985335 -0.13185003 -0.3186291 -1.5909904 -0.07015921 0.25598547 0.19258577
0.22168519 -0.22976768 0.13543276 0.24830237 -0.01713914 -0.062581904 0.16831169 -0.36662638
0.26893198 0.2917554 0.094924904 -0.007046402 0.08507161 0.055155132 -0.21966878 -0.16613354
0.20982575 0.10672312 0.19434375 -0.050356276 0.14222158 -0.09972015 0.2442323 0.14212273
0.013605172 -0.44988182 -0.6354677 0.41613114 -0.15269007 -0.34251416 0.044389572 0.11395138
0.2124239 -0.026504599 0.3570067 0.266538 -0.1912981 0.28274554 -0.07569968 -1.5992287
0.12403334 0.18104282 0.22092819 0.24081178 0.03985504 -0.06015768 -0.16269433 0.045902185
-0.32879037 0.15334542 -0.14309534 -0.14829154 0.36384708 -0.15462929 -0.58639324 0.3069553
0.29498687 -0.035946038 -1.2516629 0.14766623 0.26405108 0.21724224 -0.048549674 -0.28188556
0.16763128 0.35158837 -0.08109784 0.30022195 0.14524111 0.16519888 -0.33205688 -0.02651078
0.12875277 -0.7242303 -0.17694767 0.079187796 0.33060887 0.3280553 0.38005123 -0.11873021
-0.43440598 -1.6613152 -1.2144356 0.1498146 0.05462613 0.11305177 0.06730772 0.32163444
0.062694326 -0.8607055 0.26674965 -0.0048739184 -0.10419961 0.025645837 0.16833125 -0.16966255
0.3188148 -0.14663467 0.17304648 0.2237793 -0.2743402 -0.09468904 0.33498982 0.19359641
0.1582116 -0.8248956 -0.16930659 0.2664579 0.06264964 -0.09840353 0.28103545 0.29339698
0.08316672 -0.4139363 0.34566498 -0.13337648 0.23879594 0.1356029 0.12700172 0.10802307
-0.71577656 0.1262284 -0.021909004 0.4070106 0.10402868 -0.4854681 0.017282141 0.030442337
-0.2935267 -0.28573805 -0.59396064 0.10724725 -0.52381766 0.02069002 -0.17671792 0.23700804
0.091064304 0.0418261 -0.020165108 0.10566931 0.05390663 -0.056784116 -0.49823442 -0.33928448
-0.02348279 0.10696206 -0.18610682 0.25061703 0.22556993 0.0013848192 0.14916553 -0.29168415
0.27943727 0.080625795 -0.9024745 -0.118003815 -0.16931726 0.37073267 0.20172268 -0.39501807
0.34575915 0.40921423 0.033920933 -2.3421288 -1.4953836 0.17775322 -0.143197 0.0774534
-0.14420757 -0.18946202 0.22282664 0.0011731831 0.35714054 0.0006564574 0.27400818 0.44107163
00000000: a4e3 aa3e 12ba 133e 0c40 98bd d873 403e
00000010: 5194 053e 4eb0 70bf 9349 af3e 0059 5d3e
00000020: 7f4a 90be 601a fc3c 3e18 403d 118c 8f3e
00000030: bb89 fa3d 3f0b be3d f71c 82bf a0a8 d4bd
00000040: a378 843e d7d4 65be 3e5b b53d 5199 79bf
00000050: 5a89 8d3e 1c2a 153d a96c 963e 5aba 1fbf
00000060: 4907 bebf d03e 393e 3314 3c3e f2ca c93c
00000070: 76f7 1dbe 531b 833e bcf8 14be ccea 813e
00000080: 124d 763e 95d5 203e 3a5a d2bd 9341 67bf
00000090: 5907 88bf eee7 9d3d 2590 4dbf 2747 0ebf
000000a0: dc7d 0c3e 782d 543d d729 e2bd 27c0 9c3e
000000b0: ed2b c3bc 740e 8cbe 432e f33d 94ca e93d
000000c0: afc6 44bf e865 893e 2edb 7ebf 6fb7 da3d
000000d0: ba3b 68bd 50f7 45bf 0bb6 b73e d656 a53d
000000e0: e884 e43d 8716 ff3d a625 743e 8bca 65bd
000000f0: 9c07 843e 7567 83bd b101 063e 0886 dfbe
00000100: 2693 11bd 4457 043e 48cc a9bc 8071 81be
00000110: ceee 843e 272e ba3d 1d72 133e 281d f2bf
00000120: 3bc9 f63d 94b9 cc3e b203 07be 5a23 a3be
00000130: 93a5 cbbf a2af 8fbd 8710 833e 3435 453e
00000140: 7101 633e 3848 6bbe e3ae 0a3e fa42 7e3e
00000150: 6267 8cbc f12a 80bd e659 2c3e 74b6 bbbe
00000160: 74b1 893e f760 953e fd67 c23d 81e5 e6bb
00000170: 063a ae3d 59ea 613d daf0 60be e91e 2abe
00000180: 90dc 563e a791 da3d 0c02 473e 6242 4ebd
00000190: 89a2 113e 143a ccbd 0818 7a3e 9f88 113e
000001a0: 3ae8 5e3c e956 e6be 03ae 22bf 240f d53e
000001b0: c95a 1cbe 045e afbe d7d1 353d 575f e93d
000001c0: a785 593e 2c20 d9bc 95c9 b63e ab77 883e
000001d0: a6e3 43be 06c4 903e 6f08 9bbd 87b3 ccbf
000001e0: 3105 fe3d 4a63 393e 003b 623e 5d97 763e
000001f0: 0a3f 233d e667 76bd 5899 26be ee03 3c3d
00000200: 3657 a8be 9506 1d3e 9687 12be bdd9 17be
00000210: 2a4a ba3e 2457 1ebe de1d 16bf 3f29 9d3e
00000220: 8508 973e 273c 13bd 7d36 a0bf d135 173e
00000230: b431 873e c074 5e3e 06dc 46bd 4e53 90be
00000240: 89a7 2b3e 6403 b43e a016 a6bd b1b6 993e
00000250: 16ba 143e e529 293e 5c03 aabe 232d d9bc
00000260: c4d7 033e 2867 39bf c531 35be 362d a23d
00000270: 9145 a93e ddf6 a73e 1396 c23e d328 f3bd
00000280: 766a debe faa5 d4bf a072 9bbf 0069 193e
00000290: a6bf 5f3d b087 e73d a1d8 893d 45ad a43e
000002a0: e265 803d 3257 5cbf 6993 883e 64b5 9fbb
000002b0: 9b66 d5bd 3817 d23c 075f 2c3e 05bc 2dbe
000002c0: b23b a33e 6627 16be 1933 313e 6726 653e
000002d0: 5276 8cbe 54ec c1bd c983 ab3e 233e 463e
000002e0: 3902 223e 5c2c 53bf b55e 2dbe 2b6d 883e
000002f0: 744e 803d ca87 c9bd e1e3 8f3e 2138 963e
00000300: 5053 aa3d 75ef d3be 00fb b03e d893 08be
00000310: ec86 743e 7ddb 0a3e bd0c 023e 333b dd3d
00000320: 223d 37bf 0542 013e 837a b3bc b263 d03e
00000330: fd0c d53d 468f f8be 4793 8d3c 3562 f93c
00000340: 2249 96be 424c 92be ce0d 18bf 72a4 db3d
00000350: ea18 06bf 1e7e a93c 8bf5 34be 3cb2 723e
00000360: ec7f ba3d d851 2b3d 4c31 a5bc 2769 d83d
00000370: 33cd 5c3d 7696 68bd 9518 ffbe b2b6 adbe
00000380: fb5e c0bc ed0e db3d c992 3ebe e050 803e
00000390: cefb 663e d282 b53a d9be 183e a057 95be
000003a0: 6712 8f3e 231f a53d 9208 67bf fcab f1bd
000003b0: 8161 2dbe acd0 bd3e 6490 4e3e cf3f cabe
000003c0: 5807 b13e 8784 d13e adf0 0a3d 70e5 15c0
000003d0: bb68 bfbf f104 363e 3ca2 12be e39f 9e3d
000003e0: 26ab 13be 5502 42be ab2c 643e 7ec5 993a
000003f0: 20db b63e 1c16 2c3a cd4a 8c3e 24d4 e13e

fc3.bias f4 [9]
-0.009292463 -0.10799664 -0.11793257 -0.03018987 -0.09248486 0.015159924 -0.00045299612 0.32139504
-0.08562506
00000000: 6a3f 18bc 582d ddbd a286 f1bd bf50 f7bc
00000010: b468 bdbd 5461 783c 1c80 edb9 e48d a43e
00000020: 315c afbd
